test.onnx (onnx, 978326 bytes, 153 tensors)

output_reg_layers.weight f4 [12, 72, 1, 1]
000000 c8 49 62 3c b3 0c ef 3d 02 96 04 bd 7c a7 bf bc
       0.013811536 0.11672344 -0.03236962 -0.023395292
000010 4c 17 84 bd 34 93 f8 3c df aa ee bd c8 25 08 3c
       -0.06449756 0.03034363 -0.11653685 0.008309789
000020 83 a1 e4 bd aa 85 c6 bd 80 4f 56 bd 94 0a ed bc
       -0.111636184 -0.09693463 -0.05232191 -0.028935708
000030 12 cd 0b 3d c0 89 fb 3a 1c 58 9d bc 5f aa ac 3d
       0.034131117 0.0019190833 -0.019207053 0.08430933
000040 a2 76 43 3d 68 2d 62 bd 9c ed c1 bc 00 fa 46 3a
       0.04772056 -0.055219084 -0.023672871 0.00075903535
000050 57 27 ba 3d d7 9c 9b 3d 47 5b ce bd ba f4 25 3d
       0.09089535 0.07598274 -0.100760035 0.040516593
000060 cc 75 c6 3c ba 92 10 3d e4 fa c3 bd ab a8 db bd
       0.024226092 0.03529618 -0.09569338 -0.1072553
000070 80 c3 fa bb af 5b 98 3d 98 f1 57 bc 32 de 88 bd
       -0.0076527 0.07439362 -0.013180159 -0.066830054
000080 da 7c 73 3d 6a fc 49 3d e6 3b a7 bd fe ce 6c 3d
       0.05944524 0.049312986 -0.081657216 0.05781459
000090 5a 65 b1 bd 6b 49 91 3d bd 50 dc 3d 35 a4 88 3d
       -0.086619094 0.070940815 0.10757587 0.06671945
0000a0 6c 6c b0 bd 8c b8 f1 3c 92 41 84 bd e8 10 8c bc
       -0.0861443 0.029506944 -0.06457819 -0.017097905
0000b0 8e f2 11 3d fe f1 ef bd da 95 d0 bd a8 a6 94 bc
       0.03563171 -0.11716078 -0.10184832 -0.018145874
0000c0 c2 c6 d2 bd b6 1f 70 bd 47 f0 a3 3d e7 5e bd 3d
       -0.10291816 -0.058623992 0.08004814 0.09246617
0000d0 d0 3b cc 3b 62 c5 ad bd 72 ed 31 bd 1c 88 c5 bd
       0.006232716 -0.084849134 -0.043439336 -0.096451014
0000e0 1c a2 a1 bd 84 cc ca bd dd fb 84 bd a2 f2 09 3d
       -0.07892248 -0.099022895 -0.064933516 0.03367866
0000f0 0d 57 bc 3d ea e5 c0 bd c0 55 d6 bc 60 13 fc bb
       0.09196291 -0.094188526 -0.026163936 -0.0076927394
000100 79 37 da 3d 12 db 39 3d e2 b9 05 3d cd b3 90 3d
       0.10655112 0.045374937 0.032647975 0.07065544
000110 5c 4c 83 3c e0 f6 f1 bc 63 bc b2 3d d6 fb 05 3d
       0.016027622 -0.029536664 0.08727338 0.032710873
000120 ad 5e c9 3d 09 14 ea bd de a2 5a 3d ad bf d6 bd
       0.09832511 -0.11429603 0.05337798 -0.10485778
000130 fe e6 13 3d e6 4f 4e bd b4 55 df bc 00 5d d6 bb
       0.036108963 -0.050369166 -0.027262546 -0.006541848
000140 98 f0 d4 bd c0 0c 8a 3b fb b0 a4 3d ba 05 2f 3d
       -0.10397452 0.0042129457 0.08041569 0.04273007
000150 3d a3 ee 3d cc 7f ae bc ec 47 28 bd 20 6a 6f 3b
       0.11652229 -0.021301173 -0.041084215 0.0036531761
000160 d0 59 93 bb 4b ba c9 bd e6 55 57 bd 00 50 8e bd
       -0.0044967905 -0.09849986 -0.052572154 -0.069488525
000170 11 fa b6 3d bd a3 9a 3d e3 2b cb bd 4e 06 64 3d
       0.08934415 0.07550762 -0.0992048 0.055670075
000180 ed 11 a5 3d e0 8a 23 bb 97 8f ae 3d 0e f7 46 bd
       0.0806006 -0.0024954602 0.08523481 -0.048575453
000190 cb 67 89 3d 00 bf 6f 3b f0 b0 f0 bc c6 12 db bd
       0.0670925 0.003658235 -0.029381245 -0.1069694
0001a0 89 ba 84 3d dd 2d c1 bd a0 89 8a bc 8b 41 bf 3d
       0.06480891 -0.09432576 -0.016911328 0.09338673
0001b0 d2 fb 1e 3d 17 52 cd bd 04 44 87 bc 6e 64 50 3d
       0.038814373 -0.10025423 -0.016511925 0.050877027
0001c0 44 58 16 bd 2f d0 d8 3d 80 3b c6 bb 96 19 4f 3d
       -0.03670527 0.10586583 -0.0060495734 0.05056151
0001d0 fa 05 59 3d 66 bf 15 3d 30 c6 c4 3b 7c d9 c1 3c
       0.052984215 0.036559485 0.006005071 0.023663275
0001e0 e3 8d d8 bd ea 56 16 3d a0 e4 d3 bb 34 96 88 bd
       -0.10573938 0.03670398 -0.006466463 -0.06669274
0001f0 20 72 87 bc 22 57 9f bd c4 17 c8 bc 60 9b 84 bb
       -0.016533911 -0.07780291 -0.024425395 -0.0040468425
000200 dc bb c5 bc b6 4f 2d bd 0c e6 c6 bd 08 0b 40 3c
       -0.02413743 -0.042312346 -0.09711847 0.01172138
000210 0c 5b aa bc 29 56 8b 3d 2e c6 8a bd b2 45 38 3d
       -0.020795368 0.06803543 -0.06776081 0.04498834
000220 3c a6 92 3c 94 d9 80 3c e0 56 35 bd 9e c9 13 3d
       0.017901532 0.01572875 -0.044272304 0.03608095
000230 24 36 94 3c f8 9e 7e 3c 6e 2c 81 bd 88 14 0f 3c
       0.018092223 0.015540831 -0.063073024 0.008732922
000240 18 b6 f0 bd 23 71 de 3d 22 c6 31 3d 97 6c e3 3d
       -0.117534816 0.10861423 0.043401845 0.11104696
000250 98 33 d6 bc ee 44 28 3d 77 59 86 3d 3e 63 35 bd
       -0.026147649 0.04108136 0.06560033 -0.044284098
000260 d8 76 34 3c 8a 6f 6a 3d bc 1f b8 bc 0e 3c 37 3d
       0.011014663 0.05723528 -0.02247607 0.044735007
000270 10 fe 30 bd 12 1d a3 bd 38 81 48 3c 7e e3 8c bd
       -0.043211043 -0.07964529 0.012237839 -0.06879328
000280 ba 13 43 bd be cc 14 bd ba 90 42 3d d1 00 9a 3d
       -0.047626235 -0.03632807 0.047501303 0.07519687
000290 3c cf e8 bc ec ee a7 3c c4 ff ee 3c fa 17 52 3d
       -0.02841913 0.020499669 0.029174693 0.051292397
0002a0 12 dc 24 3d 48 f2 95 bd 30 99 f0 bc 10 2b cd 3b
       0.040248938 -0.07321602 -0.02936992 0.006261237
0002b0 b4 45 e2 bd 13 fa 70 bd 5c 4e 8b 3c c1 5a c1 3d
       -0.11048451 -0.05883224 0.017005138 0.09441138
0002c0 68 6d a2 bd c8 69 99 bd de ab a4 bd 9b 3c dc bd
       -0.07931024 -0.07490879 -0.080405936 -0.10753747
0002d0 ec 83 b2 bc 00 9b b5 bb f6 d1 2a bd 25 48 cf 3d
       -0.02179142 -0.005542159 -0.04170414 0.10121182
0002e0 7f 5b a0 3d 70 20 c9 bb c0 29 d1 3b 04 51 e9 bd
       0.078299515 -0.0061379 0.006383151 -0.11392406
0002f0 ea e3 38 bd ca d2 d3 bd 18 fa 73 bc 39 a2 9a 3d
       -0.04513923 -0.10342939 -0.01489117 0.07550473
000300 00 65 e0 bd 20 6a 71 bb 6a 78 5d 3d 90 9b 46 bc
       -0.10956764 -0.0036836937 0.054069914 -0.01212205
000310 f0 28 8f bd 84 19 ae 3c 42 c7 11 3d 44 19 9a 3c
       -0.0699023 0.021252401 0.035590418 0.018810876
000320 a9 66 9b bd 92 10 84 bd 2c 16 dc bd b2 d9 73 3d
       -0.0758794 -0.06448473 -0.107464164 0.059533782
000330 84 f6 f5 3c 9a 5a 4a bd 00 56 5d bd b0 36 a0 bb
       0.030024774 -0.04940281 -0.054037094 -0.0048893318
000340 80 d8 36 3a 31 68 85 3d ca 82 94 bd 0a c4 93 bd
       0.000697501 0.065140136 -0.072515085 -0.07215126
000350 93 a3 b5 3d 80 2c d0 bb 00 85 9b 3a f8 bb 47 3c
       0.0886909 -0.006352961 0.0011865199 0.012190811
000360 9c 0d ae bd 24 7f 3f bd 61 2b ed bd d3 44 ca 3d
       -0.084986895 -0.04675211 -0.115805395 0.098764084
000370 e0 a2 e7 bd be b0 4f 3d 02 9f de bd 09 7c cc bd
       -0.11310363 0.050705664 -0.10870172 -0.09984595
000380 da 23 2f 3d 59 86 d9 bd 90 eb 06 bc 9b 6c b2 3d
       0.0427588 -0.10621328 -0.008234873 0.08712121
000390 c4 c1 fe 3c 08 19 03 3c 14 8f 38 bd eb 44 9f bd
       0.031098254 0.008001573 -0.045058325 -0.07776817
0003a0 ef 1b ec 3d c2 28 3f 3d c1 d9 a1 bd f1 0c bc bd
       0.115287654 0.04666973 -0.079028614 -0.09182156
0003b0 82 7b 93 bd 83 2d 82 3d 44 3e 17 bd ab e9 83 3d
       -0.072012916 0.06356337 -0.036924616 0.06441053
0003c0 43 4a 96 3d cb d5 82 3d 58 c5 d5 bc 6e 2c 24 3d
       0.07338383 0.06388434 -0.026095077 0.040081434
0003d0 dc 01 d0 3c 39 a9 9e 3d fc c0 e2 3c 68 48 9e bc
       0.025391512 0.077471204 0.027679913 -0.019321635
0003e0 28 49 41 bd 6a 81 40 3d 61 47 8d 3d 80 d6 ef 3a
       -0.047188908 0.04699842 0.0689838 0.0018298179
0003f0 90 93 f4 3b b3 24 b3 bd ff e7 bb 3d 30 70 ba bb
       0.00746388 -0.08747234 0.09175109 -0.0056896433

output_reg_layers.bias f4 [12]
000000 8d 36 b2 3d fc 5d ac 3c aa f6 24 3d 16 1b 26 3d
       0.08701811 0.021040909 0.0402743 0.040553175
000010 24 81 c2 3c f1 66 d0 bd 08 75 01 3c 98 5b ed bc
       0.02374322 -0.101758845 0.007901438 -0.02897434
000020 60 f6 81 bc 6b 0f b0 3d ce 74 0c 3d e5 f0 85 3d
       -0.015864551 0.08596691 0.03429108 0.065400876

output_obj_layers.weight f4 [3, 72, 1, 1]
000000 40 2d a1 bc 84 e6 bb 3c fb cd 9e 3d b7 0a d0 bd
       -0.019674897 0.022937067 0.077541314 -0.10158294
000010 c0 bb 05 bb c8 f5 31 bc cd 7a ae bd 1d c2 64 bd
       -0.0020406097 -0.0108618215 -0.08519516 -0.055849183
000020 50 b9 e5 bc a4 e6 d8 3c ec 26 99 bd 39 06 a5 3d
       -0.028042465 0.026477166 -0.07478127 0.080578275
000030 9f ee df 3d 3f 66 ca 3d 73 a7 df 3d e0 11 07 bd
       0.10934185 0.09882783 0.1092061 -0.03297603
000040 56 f7 59 3d 4a 0a 12 3d 56 99 0d 3d 4a 61 9a bd
       0.053214394 0.035654344 0.03457006 -0.07538088
000050 52 81 af bd 78 1c ad bc 80 3b 29 bc 22 8b 1d 3d
       -0.08569588 -0.021131739 -0.010329127 0.038462766
000060 e7 0c 79 bd b0 d6 8b 3b 7c 91 b5 bc 31 d7 8c bd
       -0.06080332 0.004267536 -0.022164099 -0.06876982
000070 40 09 44 3b 8d 02 d5 bd 3a a9 bb bd aa 98 63 3d
       0.002991274 -0.10400877 -0.09163137 0.055565514
000080 a9 72 ab 3d 66 d1 4f 3d 60 c5 b6 bd 52 96 b2 bd
       0.08371479 0.050736807 -0.08924365 -0.087200776
000090 68 53 54 bc 12 5f 77 bd f0 2a 2d bd 52 ff 4f 3d
       -0.012959339 -0.0603934 -0.042277277 0.0507806
0000a0 8c 9e a1 bd 2e 9b 7f 3d b5 a0 b2 3d 2c 8e ef 3c
       -0.078915685 0.06240385 0.08722059 0.029242598
0000b0 bd 71 90 3d aa ea ed bd 90 a7 c6 bc 74 ae 9f 3c
       0.07052944 -0.11617024 -0.024249822 0.019492365
0000c0 48 de 26 3c 4e 3c 82 bd b7 3f e2 bd 24 d9 74 bd
       0.010184832 -0.063591585 -0.11047309 -0.059777394
0000d0 39 5b f0 3d 18 98 70 3c 98 76 49 3c 18 74 58 3c
       0.11736149 0.0146846995 0.012296341 0.013211273
0000e0 40 f2 e3 bb 77 eb a6 bd 89 c8 63 bd f2 d1 4b 3d
       -0.0069563687 -0.0815038 -0.055611167 0.049760766
0000f0 66 f7 81 bd 69 da e3 bd cc ea 84 3c d9 47 d9 bd
       -0.06346016 -0.11125643 0.016225241 -0.10609407
000100 4b 6d e0 3d 48 d5 e5 bd 52 80 85 bd 2a 10 90 bd
       0.10958346 -0.11222321 -0.06518616 -0.07034333
000110 d5 11 68 bd 45 18 a1 3d f8 c2 18 bd 78 92 9d bd
       -0.05665763 0.07865957 -0.03729531 -0.07693952
000120 c4 17 14 bd a3 ba d5 3d 50 58 12 bd 6e a7 62 3d
       -0.036155477 0.10435989 -0.035728753 0.055335455
000130 40 92 cb 3b 5e 61 37 bd 16 14 53 3d 92 58 74 3d
       0.0062125027 -0.04477059 0.051532827 0.05965478
000140 20 2a 7e 3b 57 75 d6 3d 6f ba 9a 3d 5f aa 85 bd
       0.0038782433 0.104715995 0.07555091 -0.06526636
000150 45 db 8c 3d 99 88 ed bd 31 65 de 3d 33 c9 a2 bd
       0.0687776 -0.115983196 0.108591445 -0.07948532
000160 a8 d3 dc bd e0 3e bf 3b 49 22 80 bd 90 be f2 bb
       -0.10782558 0.0058363527 -0.062565394 -0.0074079707
000170 10 ad 49 bd 30 c6 bf bd 98 e5 68 bc 40 05 21 bb
       -0.04923731 -0.09363973 -0.014214896 -0.002456978
000180 2c ab 33 bd df db eb bd 58 ba 4a bc 5e 74 c5 bd
       -0.043864414 -0.115165465 -0.012373529 -0.09641336
000190 6a 64 8a bd 51 c3 bf bd b2 56 67 3d 57 61 8f 3d
       -0.06757434 -0.093634255 0.056479163 0.07000988
0001a0 80 ec 29 3b ee 57 2c bd 47 27 aa 3d 84 98 0c bd
       0.0025928319 -0.042076044 0.08308273 -0.034325138
0001b0 eb a4 ec 3d 2a 6c b5 bd cc e3 a0 bc 00 c0 ae 37
       0.11554893 -0.08858521 -0.019639872 2.0831823e-05
0001c0 c5 9b 93 3d cd ce c8 3d c8 27 64 bc 89 c3 98 bd
       0.07207445 0.09805069 -0.0139255 -0.0745917
0001d0 10 d5 c6 bb 4b b5 c4 3d 01 5c 83 3d f5 fd b7 3d
       -0.0060678795 0.096048914 0.06414033 0.08983985
0001e0 28 4b 59 3c 28 1f 17 bd 0b b4 ec 3d 5e 54 60 3d
       0.013262548 -0.036894947 0.11557778 0.05476796
0001f0 b1 00 6c bd bc 72 c4 3c ca 3a 2d bd 80 73 ad ba
       -0.057617847 0.02398049 -0.042292394 -0.0013233274
000200 77 48 85 3d dc 87 2b bd 3f f7 dc bd 06 44 c7 bd
       0.06507962 -0.041877612 -0.10789346 -0.09729771
000210 3e c5 1f 3d f0 e1 0c bd 94 1c 95 bd 4c d0 a3 3c
       0.039006464 -0.03439516 -0.072808415 0.019996785
000220 f6 02 59 bd aa 98 33 3d 7e 78 00 bd a4 b3 95 3c
       -0.05298134 0.043846764 -0.03136491 0.018274136
000230 7b 69 c3 3d ae af 1d bd a4 99 8f 3c 7a c4 c7 bd
       0.09541603 -0.03849762 0.017529316 -0.09754272
000240 88 14 d2 bc 03 e1 ed 3d c7 2f 98 3d f0 df a2 3b
       -0.025644556 0.11615183 0.07430988 0.004970543
000250 e6 67 32 bd 5e 84 14 3d da c5 2b 3d d0 50 54 bd
       -0.043556117 0.036259048 0.041936733 -0.05183488
000260 98 fd 3b 3c 25 f7 8d bd 5c 04 ae 3c ae cf b2 bd
       0.011474036 -0.06931905 0.021242313 -0.08731018
000270 ce f7 d4 bd 9c 75 c4 3c 58 d3 15 bd ea 42 c0 bd
       -0.103988275 0.023981862 -0.036578506 -0.09387763
000280 24 bd c8 3c 6f 6f a5 3d db 4f a3 3d e8 9c bd bc
       0.024504252 0.08077895 0.079742156 -0.023146108
000290 63 32 c5 bd 12 90 83 bd 6a 8a 1a 3d 3e 8c e2 bd
       -0.09628751 -0.064239636 0.03772966 -0.11061905
0002a0 6a c8 56 3d 84 d9 84 bd dc a5 bc bd 6d 16 d4 3d
       0.052437223 -0.064868 -0.09211323 0.1035584
0002b0 cc e1 94 bd 45 52 df bd 78 f0 29 bd 3b b2 ba 3d
       -0.0726963 -0.109043635 -0.041489094 0.09116026
0002c0 92 25 06 3d 0a 12 2d 3d 62 8a c0 bd 0e 7e 40 3d
       0.032750674 0.04225353 -0.094013944 0.046995215
0002d0 0a 4f d2 bd 6a e8 64 bd 59 36 75 bd fa 5d 7d bd
       -0.10268982 -0.05588571 -0.059866283 -0.0618572
0002e0 14 6e 81 3c 5a be cd bd e2 a2 17 3d ef 78 be bd
       0.01579956 -0.10046072 0.03702057 -0.0930041
0002f0 90 a1 dc bd 38 06 65 bc 3a cc 68 3d ce a4 87 bd
       -0.10773003 -0.013978533 0.05683539 -0.06623231
000300 f0 99 dd bc 29 97 66 bd f4 65 ad 3c cc 11 a3 3c
       -0.027050942 -0.0562965 0.02116678 0.019905947
000310 0a c5 0f bd fa b5 9f bd 45 88 b3 3d 60 e9 69 bb
       -0.03510002 -0.07798381 0.08766226 -0.003569208
000320 9d e3 9a 3d 92 68 00 bd c0 d5 e6 ba 85 69 9a 3d
       0.07562945 -0.031349726 -0.001761131 0.075396575
000330 b5 40 e2 3d 6c b2 e0 bd 9e f2 4d 3d df e3 d0 bd
       0.11047498 -0.10971531 0.050280206 -0.10199713
000340 ce 27 82 bd cf 2b 81 3d dc 41 99 bd 93 4c c0 bd
       -0.063552484 0.06307184 -0.07483265 -0.093896054
000350 51 d6 ad 3d 65 83 e7 3d 39 8e 99 3d d3 76 d3 3d
       0.08488143 0.113043584 0.0749783 0.10325398

output_obj_layers.bias f4 [3]
000000 8e c5 6f bd ed 9f d1 bd 44 07 cc bc
       -0.058538012 -0.102355815 -0.024905808

output_cls_layers.weight f4 [80, 72, 1, 1]
000000 6c d2 8f bd 56 23 63 3d 20 86 b9 bb 79 82 d9 3d
       -0.07022557 0.05545362 -0.005661741 0.10620589
000010 7c c1 f2 3c 11 c6 aa 3d 7a a9 2a 3d aa 5b 28 3d
       0.029633276 0.083385594 0.04166553 0.041103043
000020 f9 c3 a8 3d 00 55 e9 ba 7d d9 8d 3d 00 58 1d 39
       0.08240504 -0.0017801821 0.06926248 0.0001500547
000030 da 00 c2 bd be 82 80 bd ab 63 7f bd cd 5c e8 3d
       -0.09472819 -0.06274937 -0.06235091 0.11345825
000040 cd 7d bb 3d c2 36 59 bd 20 91 b0 3b 86 64 75 3d
       0.09154854 -0.053030737 0.005388394 0.05991032
000050 8d e1 90 3d ae 26 41 3d 70 14 93 bc 15 8a dd 3d
       0.070742704 0.04715603 -0.017954081 0.10817353
000060 2c fa 91 3c f5 9c b2 3d 41 01 be 3d 68 39 02 3c
       0.017819487 0.087213434 0.09277583 0.007948257
000070 81 1f 86 3d a8 f7 22 3c db df ef bd 96 5b 09 3d
       0.06548978 0.009946741 -0.11712619 0.03353461
000080 16 53 41 3d a7 ec c6 bd 44 1f d6 3c fa ad c5 bd
       0.047198378 -0.097131066 0.026137955 -0.09652324
000090 73 5b b2 3d 05 d8 83 bd 47 71 b5 3d 45 00 a8 3d
       0.08708849 -0.06437687 0.088594966 0.082031764
0000a0 43 fa eb 3d 7c 7c ef 3c 7d e7 84 bd a0 af 09 bc
       0.11522343 0.029234163 -0.064894654 -0.008403689
0000b0 fe 32 ec bd d0 dc 94 bd 97 ad b0 3d bc b8 ab bc
       -0.115331635 -0.07268679 0.0862686 -0.020962112
0000c0 40 74 a2 bd 0a 0d 21 3d 73 d6 d8 3d 53 d6 81 3d
       -0.07932329 0.039319076 0.10587778 0.06339707
0000d0 05 97 c3 bd 75 2e ea 3d 75 52 d6 3d 00 e5 fc 39
       -0.09550289 0.11434642 0.10464946 0.00048235804
0000e0 24 ae e6 bc f2 89 4a 3d d0 da 7e bc 80 8b cb bd
       -0.028159209 0.04944796 -0.015555099 -0.09938717
0000f0 b4 15 e0 3c 20 e8 a8 bd 41 92 c3 bd 03 6c b2 3d
       0.027354099 -0.08247399 -0.0954938 0.08712008
000100 40 11 b4 bd 1d 37 bd bd 1e d5 48 bd 22 9a d4 bd
       -0.08792353 -0.09239028 -0.04903137 -0.10380961
000110 e0 1e 0c bb 25 97 b0 3d e8 10 36 3c 7f 6d a9 3d
       -0.0021380708 0.086225785 0.011112429 0.08272838
000120 6b d8 92 3d 34 63 fb bc 78 31 72 bc d8 da 25 bd
       0.07170185 -0.030686952 -0.014782302 -0.04049191
000130 3f e2 80 3d 11 5f ec bd 70 72 ed bb 63 69 d9 3d
       0.06293153 -0.1154157 -0.007246308 0.10615804
000140 b4 f4 03 bd 30 8f b0 3b f6 d9 47 bd 03 3e 88 3d
       -0.03221579 0.005388163 -0.048791848 0.06652453
000150 66 44 4c 3d 00 7a f0 bb 88 9b 87 bd 6a 34 65 bd
       0.049869917 -0.0073387623 -0.06621462 -0.05595819
000160 34 b1 ba 3c 0a fc 4a 3d 58 0d 89 bd 3a 6b 29 3d
       0.022789575 0.04955677 -0.06691998 0.041362025
000170 c4 60 f8 3c 60 96 cb bd 52 7d c6 bd 76 fe 54 3d
       0.030319579 -0.09940791 -0.09691872 0.052000485
000180 80 ef 35 bb 09 a2 a9 bd 20 c8 b0 bc f1 88 87 bd
       -0.0027761161 -0.08282859 -0.021579802 -0.066179164
000190 a9 8a e9 3d f5 4d c9 3d 0a 6f a0 bd b2 18 95 bd
       0.114034005 0.09829322 -0.07833679 -0.07280101
0001a0 ca b0 17 3d 72 57 43 bd 32 9e 25 bd 50 10 17 bc
       0.037033834 -0.047690816 -0.04043407 -0.009220198
0001b0 9c 12 94 bd 08 dd 8e bd ce 54 7c 3d 60 56 3a bb
       -0.07230112 -0.06975752 0.061604314 -0.0028432831
0001c0 ee cb 47 3d 37 a0 92 3d ab 22 e7 3d 50 1b b6 bc
       0.048778467 0.07159465 0.11285909 -0.02222982
0001d0 36 60 6b 3d 1a fb c1 bd f8 22 7d 3c c0 92 b9 bb
       0.0574648 -0.09471722 0.015450232 -0.005663246
0001e0 2b 84 a1 3d 1a 51 2e 3d e5 22 ee bd 26 4d 40 3d
       0.07886537 0.042557813 -0.11627749 0.046948574
0001f0 2e d7 5e 3d 25 06 d4 3d 98 5d 05 bd 96 c8 b9 bd
       0.05440443 0.103527345 -0.03255996 -0.09071462
000200 fa 06 69 3d d8 a5 ba bd 2d 53 74 bd 4d 65 cc 3d
       0.05689142 -0.091136634 -0.059649635 0.09980259
000210 09 ce ef 3d 00 39 21 bd 13 82 9d 3d 68 12 a1 bc
       0.1170922 -0.039361 0.07690825 -0.019662097
000220 78 c5 19 bc d7 d2 91 3d aa 07 09 3d 88 94 33 3c
       -0.009385459 0.07120293 0.033454575 0.010960706
000230 d6 7c 3e bd ec 6e 85 bc e0 3b 46 bd 54 9b ca 3c
       -0.04650577 -0.016288243 -0.048396945 0.02473227
000240 db fd a1 3d e8 e0 a1 bc 8e 82 2a bd 9e fb 2a 3d
       0.07909747 -0.019760564 -0.041628413 0.041743867
000250 72 57 bf bd 81 30 c7 3d 70 a0 95 bd a8 72 4c 3c
       -0.09342851 0.09726048 -0.07305992 0.012478508
000260 a6 30 01 3d 00 fe 03 39 54 69 82 3c 80 4b 94 ba
       0.031540535 0.00012587756 0.015919365 -0.0011314005
000270 f4 09 9e 3c c0 26 c3 bc de 19 12 3d 56 d0 65 3d
       0.019291855 -0.023822188 0.0356692 0.056106888
000280 ff 49 e0 3d f0 a0 90 bb ea 51 07 bd a4 cf e0 bd
       0.10951614 -0.0044137165 -0.033037104 -0.10977104
000290 c7 2b dd bd ea d0 62 3d 8c f1 9e bc f6 6d 23 3d
       -0.107993655 0.055375017 -0.019402288 0.03989979
0002a0 06 94 44 bd 8d 69 b7 3d b8 8d 21 bd d1 11 9a 3d
       -0.04799273 0.08955679 -0.039441794 0.075229295
0002b0 6d 9e b3 3d e4 4b a4 3c a0 b5 20 bd 7a 66 82 bd
       0.08770452 0.020055719 -0.03923571 -0.06367202
0002c0 84 02 bf 3c 1d d8 cb bd 6f 28 a4 3d 21 e6 ea 3d
       0.02331663 -0.0995333 0.080155246 0.11469675
0002d0 98 38 dd bc fe 7b 28 3d 76 75 ec bd 80 00 f0 bb
       -0.027004525 0.041133873 -0.115458414 -0.0073242784
0002e0 cf d9 ef bd ee 3f 24 3d 30 da 27 bc 52 f8 48 bd
       -0.117114656 0.04010003 -0.010244891 -0.04906494
0002f0 ae de 17 3d e4 ad c5 bc 3e 93 2a 3d 44 ff fd 3c
       0.0370776 -0.02413077 0.041644327 0.03100551
000300 17 3f c6 3d b0 69 09 bc 89 02 ca bd bc 72 f0 bc
       0.09680002 -0.008387014 -0.09863765 -0.029351585
000310 17 07 b7 3d 35 4c b9 3d c0 1a ef bd 23 a9 ad bd
       0.08936899 0.090477385 -0.11675024 -0.08479526
000320 93 af be 3d 5f 0c 72 bd e9 06 e3 bd ec 91 b4 bd
       0.09310832 -0.05909383 -0.110853024 -0.08816895
000330 fe 81 05 bd fa e1 5d bd df 6e 83 3d 3b ac be 3d
       -0.032594673 -0.054170586 0.06417631 0.09310194
000340 c8 3c 83 bd 25 93 ad 3d bd 7e d2 3d ba 4c e2 bd
       -0.064080775 0.08475331 0.1027808 -0.11049791
000350 53 ca cb bd 4a be 79 3d f2 02 34 3d a0 95 35 3b
       -0.099507 0.06097249 0.04394812 0.0027707592
000360 ec 99 9c 3c 35 3c bb 3d 12 10 1e bd 4d a3 bf 3d
       0.019116364 0.09142343 -0.038589545 0.09357319
000370 d5 4b d0 3d d2 df 4d bd 4c 1c 83 3c 19 47 9d 3d
       0.10170714 -0.05026228 0.016004704 0.076795764
000380 40 0e dd ba 58 7a db bc 80 da 33 3b 20 38 59 bc
       -0.0016865209 -0.026791736 0.0027443469 -0.01325801
000390 fc 4f a0 bd e2 14 04 3d 70 0b 86 3b 8c 9c 2b bd
       -0.07827756 0.032246478 0.004090719 -0.04189734
0003a0 7f ec d9 3d 12 32 64 bd 34 8b 98 3c 27 f2 bc 3d
       0.10640811 -0.055711813 0.018621065 0.092258744
0003b0 6c 34 a5 3c 54 42 fe bc 8d 8e c1 bd 46 ea 6c 3d
       0.020166598 -0.031037487 -0.094510175 0.057840608
0003c0 0f 74 e0 3d 91 30 d0 3d b5 00 b1 3d ca 08 4a 3d
       0.109596364 0.10165513 0.08642713 0.04932479
0003d0 9e 2d 05 3d 3b fb bf 3d a4 a9 93 3c 69 e9 62 bd
       0.032514207 0.0937409 0.018025227 -0.05539838
0003e0 04 46 f4 3c 63 c2 eb bd 1a f7 01 bd 26 6e 37 3d
       0.029818542 -0.11511686 -0.031729795 0.04478278
0003f0 46 ad 54 3d 00 e5 e8 ba 7a f6 55 3d 01 bc d2 bd
       0.05192306 -0.0017768443 0.05223701 -0.10289765

output_cls_layers.bias f4 [80]
000000 4e f6 2d bd 85 0a 8a 3d ad 19 db bd 77 2b eb 3d
       -0.042471223 0.06740288 -0.10698257 0.114829
000010 18 fd df bc 60 6a 57 3b 9e c1 75 3d 3d 59 aa 3d
       -0.027342364 0.00328698 0.0599991 0.08317802
000020 7d 47 6b bd 20 1f 39 bc 39 58 90 3d c0 d0 7d bc
       -0.057441223 -0.011298925 0.07048077 -0.015491664
000030 b8 55 66 3c e6 3f 77 bd 3c 90 dc 3c db 8c 88 3d
       0.014058523 -0.060363673 0.026924245 0.06667491
000040 2e c1 d3 bd 6c 56 4e bd ed ec c3 3d ce 02 68 bd
       -0.103395805 -0.050375387 0.095666744 -0.0566433
000050 00 c4 9f bd c0 be ea ba 96 56 7f 3d 89 e7 c5 3d
       -0.07801056 -0.0017909631 0.062338434 0.096633025
000060 f1 8f d0 3d 5f e0 9f 3d 60 3d 8f bc e5 b2 a2 bd
       0.10183705 0.07806467 -0.01748532 -0.07944278
000070 6a 6c 1f 3d 43 fd 92 bd e9 30 ea 3d 65 32 df 3d
       0.03892175 -0.07177212 0.1143511 0.10898284
000080 97 91 c6 bd cb a8 da 3d b9 ba ec 3d b0 76 f6 3b
       -0.09695738 0.10676726 0.11559052 0.007521473
000090 34 5b b2 bd 72 35 06 3d 80 46 ea bd f1 69 df 3d
       -0.08708802 0.032765813 -0.11439228 0.109088786
0000a0 64 df a6 bc e1 74 c6 bd 6c a9 8e 3c 9e 5c 0f 3d
       -0.020370193 -0.09690262 0.017414771 0.035000436
0000b0 4b e9 7e bd aa ac 72 3d 82 c5 9c bd 94 d8 b6 3c
       -0.062234204 0.059246697 -0.07654859 0.02232007
0000c0 88 5f 2c 3c 9d 92 d3 bd 18 5e 7c 3c 7e 01 62 3d
       0.010520823 -0.10330699 0.015403293 0.055177204
0000d0 58 dd e6 bc 92 d6 70 3d 74 b6 89 bd 60 82 2d bb
       -0.028181717 0.05879838 -0.06724253 -0.0026475415
0000e0 37 cb ed bd 9e b7 14 bd fa 58 42 3d 42 36 8b bd
       -0.11611026 -0.036307923 0.047448136 -0.06797458
0000f0 fc e4 25 bd d3 4c ea 3d 00 39 bd ba 1e f9 62 3d
       -0.04050158 0.11440434 -0.0014436543 0.055413358
000100 08 60 7b 3c d8 cd 0e bc 00 05 a0 b9 d0 17 d7 bd
       0.01534272 -0.008716069 -0.00030521303 -0.10502589
000110 e9 05 d3 3d 5a 31 ac bd d8 82 a8 bc b9 fd e9 3d
       0.10303862 -0.084078506 -0.020570204 0.11425347
000120 d9 62 97 3d 75 96 c8 3d f4 a6 e4 bd 28 b6 3d 3c
       0.073919006 0.097943224 -0.11164656 0.011579074
000130 57 51 df bd e5 18 bb 3d 31 4c 7b bd d5 05 e5 3d
       -0.10904186 0.09135608 -0.06135196 0.11182753

784 f4 [24, 3, 3, 3]
000000 a5 b4 9e bd 73 18 5a bd c9 b4 8b bd bd b0 4d bd
       -0.07749299 -0.053245973 -0.068215914 -0.05021738
000010 f4 ca ef bc a0 64 30 bd a5 81 9d bd 4c fc 8c bd
       -0.02927158 -0.043064713 -0.07690743 -0.06884059
000020 ac 1b 61 bd 99 21 a6 bd 6c 54 66 bd 27 c5 a3 bd
       -0.05495803 -0.08111877 -0.056232855 -0.07996588
000030 b6 9d e1 bd ec 15 b0 bd b4 b7 a9 bd 62 09 11 be
       -0.11016409 -0.08597931 -0.08286992 -0.14163736
000040 b2 a5 d6 bd 2b 82 a7 bd 1b 4f 22 3e 9a 35 fd 3d
       -0.104808226 -0.081791244 0.15850489 0.12363739
000050 68 a9 03 3e a8 49 1b 3e e1 72 f8 3d e4 9a c0 3d
       0.12857592 0.15164816 0.121312864 0.09404543
000060 49 99 39 3e 3c 33 27 3e 4f 3c 08 3e d9 8c f4 3e
       0.1812488 0.16328138 0.13304256 0.47763708
000070 74 b5 88 be 12 fd 90 be 8b 48 ab be 56 55 32 bf
       -0.26700938 -0.28318077 -0.33453783 -0.6966146
000080 de 4b 3f 3e 8f 96 9c bc 27 4a 24 3e 45 ee 21 3f
       0.18681285 -0.01911476 0.16043912 0.63254195
000090 f4 52 6d 3f b3 79 47 be d7 c8 cd be bc eb c1 be
       0.927047 -0.19480018 -0.4019229 -0.37875164
0000a0 65 b0 98 bf d7 d2 2e be 61 48 aa be 26 43 71 3d
       -1.1928831 -0.17072617 -0.33258346 0.05890193
0000b0 c6 37 8a 3f 50 b8 71 3f c2 e5 6a 3e 51 8f b9 bd
       1.0798271 0.94421864 0.22939208 -0.090605386
0000c0 8d 8e d4 bc 7d 93 65 bf e5 c6 cc be 2d 8d a6 be
       -0.02594688 -0.89678174 -0.39995494 -0.32529584
0000d0 a9 b0 31 be 65 27 12 3f d0 68 50 3e 63 30 33 3e
       -0.17352547 0.5709136 0.20352483 0.17498927
0000e0 4b 0a 42 3e 12 19 f9 3d bc 74 1b 3d 24 99 ce 3d
       0.18949239 0.12162985 0.037953123 0.10087803
0000f0 50 ae 32 3e 20 12 fc 3d b3 34 0d 3e cb e7 8c be
       0.17449307 0.123081446 0.13789634 -0.27520594
000100 6d 87 9b be 10 f3 4f be 75 2b a7 be 9a 19 c1 be
       -0.3037676 -0.20307565 -0.32650343 -0.37714845
000110 67 55 68 be 14 7b 76 be 56 18 86 be 0c cd 0c be
       -0.22688828 -0.24070388 -0.26190442 -0.13750094
000120 e5 f5 8b 3d b4 55 25 3e af e6 a6 3c b7 4d 5b 3e
       0.0683401 0.16145974 0.02037367 0.21416365
000130 69 cd a3 3e fd 01 ec 3d 2a 4c 24 3d 31 f6 d4 3d
       0.31992653 0.11523817 0.0401117 0.1039852
000140 95 7c 87 bb d9 58 4f be cd 2f 8c be 31 a5 df bd
       -0.0041347244 -0.20248736 -0.2738022 -0.1092018
000150 f7 38 82 be 57 38 a4 be c8 1f 2a be f6 4c ba bd
       -0.25434086 -0.32074234 -0.16613686 -0.090967104
000160 fd 6f 1a be 01 17 87 bc 49 12 9a 3e d2 99 91 3e
       -0.15081783 -0.016490461 0.30092075 0.28437668
000170 07 b7 4e 3e f9 2b 89 3e ac ec 8a 3e 37 f9 3d 3e
       0.20187007 0.2679136 0.2713369 0.18552099
000180 42 cf 63 3e 75 11 3d 3e 49 0f 13 3e 29 09 a8 bd
       0.22247031 0.1846369 0.143613 -0.08204872
000190 7d 5d 19 bd f2 cd b0 bd 13 41 3a bd bf 6d 26 3d
       -0.037442673 -0.08633031 -0.045472216 0.040632006
0001a0 65 31 05 bd 32 7a 07 be c0 7d 97 bd d1 a6 ec bd
       -0.03251781 -0.13230208 -0.07397032 -0.11555255
0001b0 e3 47 f7 3e e0 08 87 be 5e fa 9b be dc 98 c6 3e
       0.48297033 -0.2637396 -0.30464453 0.38788497
0001c0 67 c3 bf ba 0a 86 9d be 98 7a cf 3e 6c c2 29 bd
       -0.0014630378 -0.30766326 0.4052322 -0.04144518
0001d0 2a a0 bb be 0a c4 74 3f bd b5 e8 be e1 84 33 bf
       -0.36645633 0.9561163 -0.45451155 -0.7012463
0001e0 0d 84 56 3f 65 cf b9 bd 5f 24 2b bf ed 46 45 3f
       0.83795244 -0.090727605 -0.6685237 0.7706135
0001f0 5e a6 7a bd 09 fe 24 bf 8e c6 57 3f 89 95 e2 be
       -0.061193816 -0.64450127 0.84287345 -0.4425471
000200 67 33 13 bf 5f be 2f 3f a9 f4 0d be 81 35 0d bf
       -0.5750031 0.6864986 -0.13862862 -0.55159765
000210 c5 46 4f 3f 8f 61 1d bd b9 71 21 bf f7 ed fb b9
       0.8096736 -0.038423117 -0.6306415 -0.00048051748
000220 08 db c7 3d 37 c4 4c bc 80 6e 97 3d ed f8 dd 3d
       0.09758574 -0.012497953 0.07394123 0.108384944
000230 3e b7 47 3d 2f 95 42 3d 23 d5 f7 3d a8 45 57 3d
       0.048758738 0.047505554 0.121011995 0.052556664
000240 ab 3f 26 3d d1 48 eb 3d 3a 3c 06 3d 46 09 ab 3d
       0.040588062 0.11488498 0.03277228 0.08351378
000250 f1 ca b0 3d cf 6a 2a 3d aa 41 5d 3c 1e b4 85 3d
       0.08632458 0.041605767 0.013504425 0.06528495
000260 1a 36 1f 3c 49 6f 4c 3d 9f d9 0a 3e 56 56 be 3d
       0.009717489 0.049910817 0.13559578 0.09293811
000270 49 a7 7b 3d 7b 68 b3 3d dc 62 9c 3d ec 6b 05 bd
       0.061438832 0.087601624 0.076360434 -0.032573625
000280 5d 7f 9b 3d d5 c8 4d 3d 72 e3 d5 be 1b 4f 09 3d
       0.07592652 0.050240356 -0.4177509 0.033522706
000290 a2 77 11 3f 33 66 03 bf bf fe 91 bc dd 9f 13 3f
       0.5682317 -0.5132782 -0.017821668 0.57665807
0002a0 f4 15 16 bf 48 6e 9f be b0 1f 2a 3f 07 4b 2a bf
       -0.5862725 -0.31138825 0.664546 -0.6652073
0002b0 35 7d 20 bd 0d b2 63 3f db f1 34 bf 93 9d 1a be
       -0.039181907 0.8894356 -0.7068154 -0.15099172
0002c0 82 9b 5f 3f f4 72 2a bf 20 ff ff be 60 d7 60 3f
       0.8734666 -0.66581655 -0.49999332 0.87828636
0002d0 8a d9 af be 0b 87 97 bd d8 c5 1a 3f 02 d3 92 be
       -0.34345657 -0.07398804 0.60458136 -0.2867661
0002e0 13 59 4b be a7 01 02 3f 86 dc a8 be 33 c4 f4 be
       -0.19858198 0.5078377 -0.32980746 -0.47805938
0002f0 89 f1 1b 3f 1e 58 a9 3d f7 8b 86 3e 25 05 7f 3e
       0.6091543 0.0826876 0.2627866 0.24904306
000300 f6 5a 82 be d5 4a a8 3d 0b 87 4d 3e 95 c7 61 be
       -0.25460023 0.08217398 0.20071046 -0.22048791
000310 75 28 ab 3d 7d 71 c1 3e d1 93 95 bc 66 e1 2e bd
       0.08357326 0.37781897 -0.01825896 -0.042695425
000320 f7 3e 27 be 5f ee da 3d 2c 6a 2d bd a7 cc 11 bd
       -0.16332613 0.10689997 -0.04233758 -0.035595562
000330 b0 a9 96 3e ec 85 e5 bc 1f 12 c6 3d 66 d4 5f 3e
       0.29426336 -0.02801796 0.09671425 0.21858367
000340 35 04 1d 3e 34 ed 8e be 73 b9 0c 3e c4 74 f8 3c
       0.15333636 -0.27915347 0.13742618 0.030329116
000350 9c 01 25 bd 60 2a b8 3e 4a 35 b7 3d 03 80 79 3e
       -0.040284738 0.3596983 0.08945711 0.24365239
000360 ff 0f c7 bd 32 8c 9f be ce 0a 0e be 5e 8a fd 3d
       -0.09719848 -0.31161648 -0.13871309 0.12379907
000370 89 79 38 bd b1 13 b2 be 9d 0e e8 3d a0 1a e2 3e
       -0.04503778 -0.34780648 0.11330912 0.44160938
000380 bf b0 6e 3e 28 3e 90 be a4 11 3c bf 06 bb 09 bf
       0.23309611 -0.2817242 -0.7346442 -0.53801
000390 bf a3 a4 3e 1c ed 5d bd ef 69 f9 be f4 cb e9 3e
       0.32156178 -0.054181203 -0.48713633 0.45663416
0003a0 0f cd 4b 3f b5 37 fe 3e ce 50 f9 be 88 8a 7a bf
       0.7960977 0.49651876 -0.48694462 -0.9786763
0003b0 cc d2 71 bf 9a fb ca 3e 97 81 e7 bd 22 52 2c bf
       -0.94462276 0.39645082 -0.11304014 -0.67312825
0003c0 6b 5c 70 3f fd c8 8d 3f 9b 33 44 3f 4f 32 88 bf
       0.9389102 1.1076962 0.76641244 -1.0640353
0003d0 46 4b 8e 3d c9 4f 96 3e 02 4c cc 3d 24 4e 80 3f
       0.06947951 0.29357746 0.09975435 1.0023847
0003e0 a4 7d 43 3e f5 d5 6d 3e c6 99 92 3e 07 d8 4a bf
       0.19090897 0.2322615 0.28632945 -0.7923588
0003f0 36 04 ad bf 4e 0e 85 3e da 30 64 3e f3 93 3d 3e
       -1.351691 0.25987476 0.2228426 0.1851347

785 f4 [24]
000000 bd 2d 17 3f 3a bf 6f 3f 25 bc 2b 3f 88 e6 f7 3e
       0.59054166 0.93651164 0.6708396 0.4841807
000010 d1 05 f9 3d 38 14 e0 3d 32 c1 b2 3d 66 28 da bf
       0.121593125 0.109413564 0.08728255 -1.7043579
000020 80 ae 32 3e e8 c1 37 3d 1a 6c e8 3d 65 19 92 ba
       0.17449379 0.044862658 0.11348744 -0.0011146484
000030 d4 36 c5 3e 4b 18 74 3f ee 88 03 3e 78 01 1e bb
       0.38518393 0.9534957 0.12845203 -0.0024109762
000040 d2 18 6f 3f 3c c6 5c 3e 32 7a eb 3d 98 0d 30 3d
       0.9339725 0.21559995 0.11497916 0.042981714
000050 e4 c7 fa 3d 32 a5 de 3f 50 2a c1 3c 8e 02 34 3e
       0.12245157 1.7394164 0.023579746 0.175791

787 f4 [24, 1, 3, 3]
000000 6d 01 37 bd 82 f6 9c 3d 48 ff 12 bd 70 d9 a5 bf
       -0.044679094 0.07664205 -0.035887986 -1.2956982
000010 37 02 e3 be 8a 06 b5 3f 45 30 b7 bf b5 66 0c bf
       -0.44337627 1.414262 -1.4311606 -0.5484422
000020 6e c4 b6 3f 66 c7 d7 3d 31 8e 0c bd 35 25 08 bd
       1.4278696 0.10536079 -0.03431529 -0.03323861
000030 36 c1 17 3e 13 48 a9 3d 87 36 7f bc aa da 54 3e
       0.14819798 0.082657 -0.015576965 0.20786539
000040 fd 64 13 3e 21 bb e3 bd bf 1f 8e 3d b9 34 85 3d
       0.14393993 -0.111196764 0.06939649 0.06504197
000050 46 06 b4 be 60 9e 2b bd a3 3c b8 bd 94 36 b9 3e
       -0.35161036 -0.041899085 -0.089959405 0.36174452
000060 29 97 20 bf e9 9f 04 3e d2 22 0c 40 b3 29 b4 bb
       -0.6273065 0.12951626 2.1896253 -0.005498135
000070 35 48 a3 bc 21 89 6f bd 3e e8 07 3f 48 60 0c 3e
       -0.019931892 -0.058480386 0.5308875 0.13708603
000080 99 31 6a be 91 ac 9d 3f de 2b db 3e ce 4e d7 be
       -0.22870483 1.2318288 0.42806906 -0.4205231
000090 f4 53 ad 3a 21 c1 4e 3d 85 95 d3 bb a2 33 75 3d
       0.0013223873 0.05047715 -0.006457033 0.059863694
0000a0 59 06 30 3d 53 c0 95 bd 35 f1 bb 3c 3b 76 b6 bd
       0.042974804 -0.073120736 0.022942165 -0.089092694
0000b0 64 6d ab be 80 1d 1c 3d 35 d5 9d 3c 09 b6 bb 3c
       -0.33481896 0.03811407 0.019266704 0.02291395
0000c0 d4 d3 49 bf d0 98 ac 3d 06 4e 28 3f 18 f4 57 bf
       -0.7883885 0.08427584 0.65744054 -0.8435683
0000d0 49 26 a9 bd f2 21 4e 3f 18 e2 8f bc ad e5 6a 3d
       -0.082592554 0.80520546 -0.017563865 0.057347942
0000e0 f1 e5 be bc b8 81 73 3d 1f b8 bc 3b c8 94 d4 bd
       -0.023303004 0.05944988 0.0057592536 -0.1037994
0000f0 2a 7c 6f bc da 85 a1 bd c6 d2 96 be 00 bf a5 bd
       -0.014617005 -0.07886858 -0.29457682 -0.08093071
000100 8d 62 37 3e ef 38 96 3e 8c c9 30 be 3c ed 99 3e
       0.17908688 0.29340312 -0.17264384 0.30063808
000110 67 9a 2c 3f 55 8c c1 be bd f6 0d 3f d0 d3 94 3f
       0.674231 -0.37802377 0.5545462 1.162714
000120 9c d6 68 3c 28 41 8b bd 4a cf d9 3c 5d 63 88 bd
       0.014211323 -0.06799537 0.026588101 -0.06659577
000130 9b b9 5f bd 41 b2 da 3d a3 8e 25 bd a5 49 b7 3c
       -0.054620367 0.106785305 -0.040419232 0.022373984
000140 b9 2a c2 3e 2c 7f 42 bd 4f 46 0e be f6 65 25 bd
       0.3792322 -0.04748456 -0.13894008 -0.04038044
000150 45 a0 b8 bc e9 34 dd bd 7e 90 1d bd 81 95 91 bc
       -0.02253736 -0.108011074 -0.038467877 -0.017771484
000160 3e 3c 9f bc 40 81 01 be 6c 19 39 bc 04 03 30 3c
       -0.019437905 -0.12646961 -0.011297565 0.0107429065
000170 5c ce ae 3b f1 05 9c 3d 37 8a 6f be 40 29 ba be
       0.0053346585 0.07618321 -0.23392569 -0.36359596
000180 00 a7 d0 3e e0 e1 5e bf af 0f f3 bf a7 02 a9 aa
       0.4075241 -0.8706341 -1.8989161 -3.002227e-13
000190 0d 01 e0 aa 9d 6a 00 ab 16 87 74 aa ee 94 47 aa
       -3.9791122e-13 -4.562269e-13 -2.1718421e-13 -1.7726421e-13
0001a0 3d d8 a6 2a 97 60 ac aa 1f 89 d5 2a 37 be ee 2a
       2.963757e-13 -3.062036e-13 3.7931548e-13 4.240928e-13
0001b0 7f 1a 14 3e 41 98 a8 bd ea 73 e8 3d 11 d1 f1 3c
       0.14463232 -0.08232165 0.11350234 0.029518636
0001c0 e3 8f d6 be df f9 e0 be 5d 56 40 bd ed 4c 4f be
       -0.41906652 -0.43940637 -0.046957362 -0.20244189
0001d0 f5 2f d3 be 8f 94 91 bc f8 77 f3 bc 35 4c e5 bc
       -0.41247526 -0.017771034 -0.029720291 -0.02799044
0001e0 20 26 1a bd f3 11 b2 bd 72 b0 4c be c0 6a 09 bc
       -0.037634015 -0.0869483 -0.19989184 -0.008387268
0001f0 cd 71 a0 bd af 81 38 be 35 28 db bc 15 05 b2 3d
       -0.07834206 -0.1801822 -0.02675257 0.086923756
000200 36 69 d2 3b e2 71 1b 3d dd 2c 59 3d 5c d1 18 be
       0.0064212335 0.037950404 0.0530213 -0.14923614
000210 d7 ec 28 bc b3 78 02 bd eb 23 9b be 01 3b 0f 2b
       -0.010310373 -0.03185339 -0.3030084 5.088569e-13
000220 71 89 e7 28 6b 99 b4 aa db 00 67 aa e6 42 01 ab
       2.5705758e-14 -3.2080878e-13 -2.0517218e-13 -4.5922847e-13
000230 70 5e 9a 28 78 a3 28 ab 52 df d7 2a 67 ea d3 a9
       1.713839e-14 -5.991245e-13 3.8346632e-13 -9.4109447e-14
000240 a9 bf 1e bd 5d 46 08 bd 52 85 9d 3d 33 83 c3 3e
       -0.038757 -0.03327023 0.076914445 0.38186035
000250 38 e9 99 bd 4b 04 35 bf a2 b9 29 3f 7e 9c 71 be
       -0.07515186 -0.70709676 0.6629888 -0.23594853
000260 f1 0f a8 bf 3a 6a db be 67 c5 67 3e 7a a5 a2 3e
       -1.3129865 -0.42854482 0.22633897 0.31766874
000270 fd 04 a3 bf 85 14 3c 3e 65 7c fb 3f 7c e1 27 bf
       -1.2735897 0.18367203 1.9647337 -0.65578437
000280 dd 80 76 3d 75 5a cd 3f d5 15 40 bd d1 54 7f bd
       0.060181487 1.604323 -0.04689582 -0.062336747
000290 24 d4 cb bd 59 9a 3a bd 5e ec 84 be 30 9b a6 be
       -0.09952572 -0.045557354 -0.25961584 -0.32540274
0002a0 5b 48 8b bd 33 fb 39 be 09 ea 77 be fe d4 a0 3c
       -0.0680091 -0.18162231 -0.24210371 0.019632813
0002b0 b2 e7 dc 3d b4 e7 24 3d e3 bc 12 3e 1d 38 1a 3e
       0.1078638 0.04026003 0.14329867 0.15060468
0002c0 d0 db 0c be b9 f8 17 3e b2 02 45 bd 9c ab 03 bf
       -0.13755727 0.14840974 -0.048098274 -0.5143373
0002d0 0b 79 3e 3d db 88 2e bb 4d 22 13 3c 72 78 31 3e
       0.046502154 -0.0026631865 0.008980346 0.17331102
0002e0 60 8f 1f 3d 24 c0 19 bd 9a e2 fa 3d 92 fc ff 3c
       0.038955092 -0.037536755 0.12250252 0.031248365
0002f0 d3 80 ea 3b a5 4a f7 3c 28 c7 0f bd f3 fd f8 ba
       0.0071564703 0.03018696 -0.03510204 -0.0018996581
000300 dc 5e 32 3f e2 a9 af bd b7 e9 37 bf c4 b3 1c 3f
       0.69675994 -0.085773245 -0.71840996 0.612118
000310 b9 8a eb bc 68 da 38 bf 04 08 23 bd a0 e9 7e 3d
       -0.028752672 -0.7220826 -0.039802566 0.06223452
000320 9b 6a c4 3d d6 4d e5 3d df 59 b1 3c 90 8f f5 bd
       0.09590646 0.11196487 0.0216493 -0.11990273
000330 de c9 7c 3c 7e 47 95 bd 42 0f e2 be 3a 3c 6d 3c
       0.015428988 -0.07289027 -0.44152266 0.014479691
000340 70 9e 5c 3d 92 b9 25 3d 5b ee dc bb 28 d3 07 3e
       0.053862035 0.040460177 -0.0067422814 0.13264143
000350 2a 93 14 3e df b0 b5 3b b1 61 1f 3e 93 8b 1c 3e
       0.14509264 0.0055447663 0.1556461 0.15287618

788 f4 [24]
000000 1d 6f 02 3f ad ba a4 be d4 6f 8e bf 5a 4d 56 bf
       0.50950795 -0.32173672 -1.1127877 -0.8371178
000010 01 2b ed 3d 1c 72 4c 3d 2d db 09 3e fa bd 71 bd
       0.11580468 0.04991351 0.13462515 -0.059019066
000020 07 93 0d be 6f b5 99 3e 4d e2 f1 3e 00 2c de 33
       -0.13825618 0.30021235 0.47242966 1.0345684e-07
000030 ad ef 07 3e f3 db e6 3e 66 4f 04 3e 52 9f da 33
       0.13275023 0.45089683 0.12920913 1.0180396e-07
000040 a0 3c 9d 3f 16 a4 0f bd 3e 0b a9 3e 7c c9 33 3d
       1.2284126 -0.035068594 0.3301639 0.043893322
000050 26 f4 13 be c2 5f 9e 3e 6e 1f 24 3e 7a 0c 98 be
       -0.14448604 0.30932432 0.16027614 -0.2969702

790 f4 [24, 24, 1, 1]
000000 5f 78 37 bc d5 5d 92 3d 26 a1 9b 3c 1d 67 2d 3c
       -0.011198132 0.07146803 0.01899774 0.010583666
000010 9a 66 44 bc 8a 26 01 ba 5d fd 6e 3c 5b d1 b5 bc
       -0.011987353 -0.0004926702 0.014586774 -0.022194555
000020 d0 8d 4c bc e6 29 97 3d 5b fe 06 3d cd 38 51 ab
       -0.012484983 0.07381038 0.032957416 -7.4330543e-13
000030 36 3e 87 be d5 45 df bd e0 fe 0a 3c a7 6e 3a ab
       -0.2641465 -0.10901991 0.0084836185 -6.6234035e-13
000040 f1 50 35 bc 94 f1 41 3e 26 cd 11 bd 45 fc aa 3b
       -0.011066661 0.18939811 -0.035596035 0.005218061
000050 54 a8 24 3d f8 8b ae bd 63 7f bf bc d7 10 47 bc
       0.040199593 -0.08522791 -0.023376172 -0.012150011
000060 80 7a 57 3d be 0e 08 3e c8 e7 fe bc 4f eb e8 3b
       0.05260706 0.13286874 -0.031116381 0.007108129
000070 49 1d 85 bc 0b 77 e3 bb d0 c5 a9 bc 3a 75 b3 3d
       -0.016249316 -0.0069416813 -0.020724207 0.087625936
000080 af 9b 48 bd cb 82 e2 bc d0 b7 98 3f 86 32 6d 2c
       -0.048976596 -0.027650258 1.1931095 3.3707772e-12
000090 59 43 f7 bd d1 81 10 be c6 62 3e 3c 8d cb a9 2b
       -0.120733924 -0.14112021 0.011620229 1.2064669e-12
0000a0 b3 a0 21 be 4e d0 76 3d c4 4e d6 3c 95 c8 81 3c
       -0.15783958 0.06025725 0.026160605 0.015842715
0000b0 19 5f b1 3c 8e d3 5e bd 4e 55 f6 3b cd af 8e bc
       0.021651791 -0.054400973 0.0075174933 -0.017417813
0000c0 bd 74 01 3e e3 9a 08 3d 51 ea f4 3e 39 47 99 3d
       0.12642188 0.033350836 0.4783502 0.07484288
0000d0 9e 4d 07 3d 45 a9 46 bd c0 6a cb 3b dd 9b 1b bc
       0.033033006 -0.04850127 0.006207794 -0.00949761
0000e0 c5 00 89 bc 77 24 a6 3d fe 9a c1 be fb 5a a9 ab
       -0.016724 0.08112424 -0.37813562 -1.2033424e-12
0000f0 aa 9f 22 3d 7e 29 ae bc 45 a5 85 3d a4 98 12 ab
       0.03970305 -0.02126002 0.06525663 -5.208145e-13
000100 9f 9e 0c bf d6 00 09 bd b8 46 8a bb 86 bd 74 3b
       -0.54929537 -0.033448063 -0.004219856 0.003734441
000110 8c fa 0d bc b3 3f 89 3c 97 f6 97 3c 46 0a 22 bd
       -0.008665692 0.016754007 0.0185502 -0.03956058
000120 e9 56 b5 bd 72 91 8d be b4 5f e2 3a 8f 67 80 3d
       -0.088544674 -0.27650028 0.0017270953 0.06269752
000130 f9 9a 4e 3d 16 dd 28 3d 76 9f 67 3e 9e 69 bb 3d
       0.050440762 0.04122647 0.22619423 0.09151004
000140 8b 74 51 3d bc 82 8a 3d df 98 a1 3c 0d 79 a5 ab
       0.051136535 0.06763217 0.019726215 -1.1757553e-12
000150 5f 48 33 3e 23 24 e4 3e ec d3 20 be a0 aa e6 2b
       0.17508076 0.4455882 -0.15705842 1.6389841e-12
000160 9b 1b 5e bd 06 68 a3 3d 80 e1 37 bf 85 ab 92 bc
       -0.054225545 0.07978825 -0.7182846 -0.017904053
000170 78 32 e4 3c 2a 47 63 bd 5e 06 10 3d 69 06 17 bf
       0.027856097 -0.05548779 0.035162322 -0.58994156
000180 90 3d a9 3d 94 33 34 bd 53 95 ac 3d da 3c 6c 3f
       0.08263695 -0.0439945 0.08426919 0.9228035
000190 38 84 f4 bc 71 bd 32 3a c9 59 98 bc 0f 50 f5 bb
       -0.029848203 0.000681839 -0.0185975 -0.0074863504
0001a0 23 5e 97 bc 0e dc 25 bd 1f 78 fa 3d 6f 33 e3 2a
       -0.018477505 -0.040493064 0.122299425 4.035899e-13
0001b0 7c 39 43 3d da 60 28 3d ff d2 d1 3c 6a 4c 0e ab
       0.047662243 0.04110799 0.025613306 -5.055458e-13
0001c0 73 b1 a6 3b 4c 22 2b 3c 22 80 31 bd 39 e1 d0 b7
       0.0050870716 0.010445189 -0.043335088 -2.490041e-05
0001d0 a2 3f b3 3c dc 86 dd bc 42 a3 5b bc 9a 93 6d bd
       0.021880928 -0.027041845 -0.013405623 -0.058002092
0001e0 80 f1 56 3e bc ba 25 3e 15 5f 23 bb 58 95 27 bc
       0.20990562 0.16184515 -0.00249285 -0.010228477
0001f0 a1 d3 5e 3c e6 5a 93 3e 96 d8 e9 bd bc 62 8b 3d
       0.013600261 0.28780288 -0.114182636 0.068059415
000200 14 f8 5e bd 65 f4 a8 bd 60 36 10 b9 6d b2 2d ac
       -0.054435804 -0.082497396 -0.00013753166 -2.4683825e-12
000210 17 81 c9 bd ef 6c 54 be 47 03 e5 3d c5 b4 a4 ab
       -0.09839075 -0.2074468 0.11182266 -1.1703074e-12
000220 18 e8 c6 3d 49 3d 4a bd 8e 75 eb 3e 75 07 88 3c
       0.09712237 -0.049374852 0.45988125 0.016605118
000230 85 72 4c bd 85 14 23 3f e1 5d 18 bc 91 5d a8 3e
       -0.0499139 0.63703185 -0.009299726 0.32883886
000240 c5 f5 88 bc b0 d0 9a 3d a8 a5 c7 3c 14 6e ea 3c
       -0.016718755 0.07559335 0.024370983 0.028616942
000250 30 12 8c 3c 5d 1b 30 3f bf 00 0d bd c2 c2 53 3e
       0.017098516 0.68791753 -0.03442454 0.20679763
000260 86 52 54 3c 7a 4c dd bd 8b ce 10 bd 97 9e 6e ab
       0.012959128 -0.10805602 -0.035353225 -8.4774673e-13
000270 cb 4c 86 3d 01 ba f3 b6 cf 36 5b bc 46 62 72 2b
       0.06557616 -7.263618e-06 -0.013379767 8.6112053e-13
000280 86 fa 89 bd 66 f0 91 3c ad 1f 41 bb 9a 51 91 bd
       -0.06737237 0.017814826 -0.0029468343 -0.070956424
000290 57 1e d3 be e3 1a 83 3c 02 cb 2b bd 21 e3 09 bd
       -0.41234085 0.016004032 -0.04194165 -0.033663873
0002a0 fd 3f 92 bd c8 6d 10 3e 02 6c 71 bc 24 39 16 3b
       -0.07141111 0.14104378 -0.014735224 0.0022922242
0002b0 c8 40 ec bd 00 ff 0a 3d 09 7a 60 3d 8b 27 9e bd
       -0.115357935 0.033934593 0.05480388 -0.07722386
0002c0 7a 3a 22 3e 3d 5e 42 3e 94 1b 12 bd 0d 8d 44 2b
       0.1584262 0.18981262 -0.03567083 6.9828935e-13
0002d0 82 c7 d6 bd 4f 6e 97 bd 25 13 d3 3d 16 f9 c8 2b
       -0.10487272 -0.073940866 0.10306386 1.427999e-12
0002e0 f2 6a 31 bc a4 03 d4 bc 63 d9 d2 be 82 f0 07 3b
       -0.01082872 -0.025880642 -0.41181478 0.002074272
0002f0 82 c7 3e 3d 87 6f ba bd 66 8a 0e bd 3e 81 bd 3b
       0.046576984 -0.091033034 -0.034799956 0.005783229
000300 3e 81 25 bd 5f 88 15 bd 83 2f 1a 3f 4f ef 0c bd
       -0.040406458 -0.036507007 0.6022875 -0.03440791
000310 b0 14 6f 38 1b 9c 16 3c da be a0 3b b7 cb 41 bc
       5.7001307e-05 0.009192492 0.004905564 -0.011828355
000320 67 dc c6 39 56 19 13 bd 06 08 da 3c a3 be d2 aa
       0.00037929715 -0.035912834 0.026615154 -3.7435774e-13
000330 2d 03 40 bd 13 d6 a7 3c 36 c9 a9 bc b7 d2 7d ab
       -0.04687803 0.02048782 -0.020725828 -9.017608e-13
000340 b3 1c 00 3e 81 f2 14 3d 1d b7 fa ba 67 8c 3b bc
       0.12510948 0.036364082 -0.0019128058 -0.011447049
000350 72 65 38 3a f4 bb a3 3b c2 08 48 3b 9d 78 4b bb
       0.00070341595 0.004996771 0.0030522798 -0.0031047233
000360 7e 94 6b 3f 09 95 35 3d 77 06 99 be 1c 9a a0 be
       0.92023456 0.044331584 -0.29887745 -0.31367576
000370 f9 72 ad 3d ea 59 fb 3d eb 6b d9 bd b9 c3 4a bb
       0.08469195 0.12273009 -0.10616287 -0.0030939414
000380 43 f0 3c 3d df f0 93 3d c2 ab 32 3f b5 03 6e 2c
       0.04612757 0.07223677 0.6979333 3.3823892e-12
000390 b3 ed c5 bb 8b f0 94 bd 4a 39 e0 bd b6 c3 60 ab
       -0.006040299 -0.072724424 -0.10948427 -7.985239e-13
0003a0 3f 93 ad 3f c8 f2 35 bd f7 9f 21 3e 93 e0 3a 3a
       1.3560561 -0.044420987 0.15783678 0.0007128801
0003b0 8c c8 ce 3d dc 42 6e bd f8 4c 16 3d 89 8f 4b 3e
       0.10096845 -0.05816923 0.036694497 0.19878973
0003c0 81 f2 6c 3c 34 c6 6c 3e fe 64 99 3c 16 1f fb 3c
       0.014462114 0.23122483 0.018724915 0.030654471
0003d0 3e 72 30 3e 9b 24 80 bd 84 28 42 3e 15 8f 2c be
       0.1723108 -0.06256982 0.18960768 -0.16851456
0003e0 a0 34 bf bd 5d da 85 3d 50 b0 c5 3b 41 19 98 ab
       -0.09336209 0.0653579 0.006032981 -1.0807259e-12
0003f0 3f c4 53 bd 68 57 31 be 73 c9 78 bd ae 5c 15 ab
       -0.051700827 -0.17318499 -0.060738992 -5.3064053e-13

791 f4 [24]
000000 c4 0c 4c 3e ad f4 fe bd aa e3 26 3e fe 8f d7 3e
       0.19926745 -0.12449012 0.16297784 0.42102045
000010 e5 44 18 3e b4 60 6c 3d c3 c3 11 3c 60 32 5d 3e
       0.14870031 0.05770941 0.008896771 0.21601248
000020 d0 bd 37 3d 23 65 93 bd 67 60 33 3d 6f ad 16 3d
       0.044858754 -0.07197025 0.04379311 0.036786493
000030 52 9d 8e 3e 2c a8 24 3e 1f 40 3f bd ad 48 c5 3d
       0.278544 0.16079777 -0.04669201 0.096330024
000040 eb 64 f2 3e ba 72 9c 3d 0a f8 e2 3d 12 32 93 3d
       0.4734262 0.0763907 0.11082466 0.071872845
000050 46 75 d2 3e 61 d9 91 bd 32 0c ac 3c 96 c9 b3 3d
       0.41105098 -0.0712154 0.021001909 0.08778684
