yolo-fastestv2.onnx (onnx, 978326 bytes, 153 tensors)

1000 f4 [72, 72, 1, 1]
-0.13534707 -0.14851715 0.22853963 0.29787463 -0.072413504 0.08052758 -0.040711615 0.38223913
0.6070054 0.28247637 0.21597537 0.2919791 -0.13199846 -0.23636495 -0.44146717 -0.082573846
-0.37878123 -0.27887642 -0.04820173 -0.12885214 -0.10976142 0.65496147 -0.06970757 0.19770403
-0.2400722 0.021763284 0.07755212 -0.04236666 -0.16744666 -0.010774492 0.30944327 0.19735083
-0.033571344 -0.016060038 0.13877113 0.06974901 -0.3245109 -0.35024494 0.06979262 -0.08882731
-0.13929442 -0.14612871 -0.17102976 0.25722975 -0.21640112 0.09179732 0.33599412 -0.260143
-0.40392122 0.06549985 0.33299744 -0.24571067 -0.19878614 -0.42840466 -0.19283342 0.30701762
-0.26164386 -0.1554414 -0.17110841 -0.094728984 -0.042195182 0.08378457 -0.2201161 -0.006905314
-0.14572671 -0.23962654 0.2197634 0.32437828 -0.2867558 0.2892784 0.26259807 -0.11847753
-0.367864 0.38236475 -0.03899717 -0.28107095 0.47898716 -0.06904684 0.07185132 -0.5182545
-0.9518538 -0.68506885 -0.10631813 -0.6254302 -0.28774467 -0.18291059 0.17529374 0.048006214
0.045748394 0.25876272 0.590262 -0.49213743 0.3156812 -0.8472914 -0.25702938 -0.051520046
0.3553518 0.42611003 0.073451266 -0.48661625 0.07884577 -0.06081805 0.07711111 0.43972176
0.23622821 -0.11441693 0.84640765 -0.030613491 -0.008100355 0.17431282 -0.33556524 0.031136474
0.095284134 0.07684772 -0.5321976 -0.14761716 0.04173361 -0.43140092 -0.27851093 -0.0283683
0.69304705 -0.19382496 0.34703013 -0.25815147 -0.045342676 0.011402125 0.35897952 -0.16579156
0.41543484 0.81906813 0.014505665 -0.7289935 0.261981 0.06911928 0.7141772 0.3571365
0.19264145 0.09493071 -0.0676484 -0.27597088 -0.6562675 0.5025962 -0.118323535 -0.42072695
0.17892174 -0.047384676 0.13823266 0.252227 -0.041285176 -0.24140784 -0.06504633 -0.38120133
-0.019233843 -0.018806199 -0.1928272 -0.20996667 0.22826287 0.27185532 0.01167721 -0.030986896
0.24899723 -0.0019977791 0.009987621 -0.034038965 -0.12122496 0.15659116 0.20207565 -0.077412575
-0.007830722 -0.6347543 -0.14677198 0.026553473 -0.14017001 -0.095338464 0.17863838 0.06687588
-0.13015763 -0.10659004 -0.09499324 0.017575134 -0.58796966 0.3744603 -0.17490864 -0.08426364
-0.0644428 -0.47651654 0.048093386 -0.05803885 0.3412635 -0.0679719 -0.08959098 0.18291137
0.14229712 -0.10443841 -0.32264745 0.10726586 0.029747086 -0.141613 -0.15261507 -0.10057606
0.100192755 -0.22185297 0.14421174 -0.01338125 -0.22955492 -0.057265602 0.36485666 -0.37196714
0.38411218 -0.053387396 0.14876111 0.04402982 -0.027127193 -0.23902217 0.44289517 -0.062224265
-0.037117124 -0.055841442 0.024804663 -0.12646315 0.037077673 0.09581206 0.07325644 -0.18630862
-0.011194269 0.07980138 0.009028384 0.11688669 0.039092284 -0.037727762 -0.029936817 0.16675133
0.02728386 0.091148406 -0.11039608 -0.43525827 0.04264872 0.044015605 0.07584525 0.028236244
0.114508815 -0.15320641 0.07094371 0.14583589 0.12684166 -0.11049332 0.13111949 -0.09227731
-0.03826252 -0.085553475 0.41632235 0.24599904 0.052475177 0.09729281 0.1915862 0.12774551
00000000: 6c98 0abe e114 18be 4b06 6a3e 0683 983e
00000010: 884d 94bd a5eb a43d 39c1 26bd d9b4 c33e
00000020: b564 1b3f bea0 903e a628 5d3e 497e 953e
00000030: 9b2a 07be a709 72be fc07 e2be 7a1c a9bd
00000040: 9def c1be e4c8 8ebe 2d6f 45bd d1f1 03be
00000050: 98ca e0bd 8eab 273f d8c2 8ebd ed72 4a3e
00000060: 7dd5 75be ea48 b23c a5d3 9e3d aa88 2dbd
00000070: 2377 2bbe 7f87 30bc 596f 9e3e 5616 4a3e
00000080: 1b82 09bd 5790 83bc 051a 0e3e 92d8 8e3d
00000090: 4b26 a6be 4e53 b3be 6fef 8e3d 18eb b5bd
000000a0: 32a3 0ebe c4a2 15be 6d22 2fbe 9eb3 833e
000000b0: 4198 5dbe 3c00 bc3d 6c07 ac3e 7731 85be
000000c0: c3ce cebe c924 863d a47e aa3e 949b 7bbe
000000d0: 988e 4bbe db57 dbbe 2076 45be 6a31 9d3e
000000e0: 2ff6 85be 082c 1fbe 0b37 2fbe 4501 c2bd
000000f0: dbd4 2cbd 3f97 ab3d 1d66 61be f945 e2bb
00000100: 6239 15be a960 75be a809 613e e914 a63e
00000110: a8d1 92be 4c1c 943e 4173 863e 59a4 f2bd
00000120: ac58 bcbe 50c5 c33e 7fbb 1fbd 88e8 8fbe
00000130: ce3d f53e 6e68 8dbd c926 933d 54ac 04bf
00000140: b1ac 73bf ac60 2fbf 52bd d9bd 321c 20bf
00000150: 4553 93be ea4c 3bbe 3480 333e 2aa2 443d
00000160: ab62 3b3d 8c7c 843e 691b 173f 70f9 fbbe
00000170: f7a0 a13e 17e8 58bf 5b99 83be af06 53bd
00000180: acf0 b53e 182b da3e 9e6d 963d c425 f9be
00000190: e479 a13d 591c 79bd 6eec 9d3d 3623 e13e
000001a0: cfe5 713e 6c53 eabd 2cae 583f 25c9 fabc
000001b0: 5ab7 04bc 0f7f 323e 35cf abbe eb11 ff3c
000001c0: 5424 c33d 5662 9d3d 1a3e 08bf f428 17be
000001d0: ddf0 2a3d 95e0 dcbe fc98 8ebe a364 e8bc
000001e0: 886b 313f 0d7a 46be efad b13e 6e2c 84be
000001f0: 3eb9 39bd facf 3a3c 2acc b73e 43c5 29be
00000200: e0b3 d43e 73ae 513f 2ba9 6d3c 519f 3abf
00000210: 6022 863e 698e 8d3d 51d4 363f 98da b63e
00000220: cd43 453e 086b c23d 3f8b 8abd 0e4c 8dbe
00000230: 2601 28bf 25aa 003f 9c53 f2bd 8669 d7be
00000240: 4337 373e 6f16 42bd dd8c 0d3e e623 813e
00000250: a51a 29bd 9e33 77be 0337 85bd d22c c3be
00000260: 4b90 9dbc 750f 9abc 7e74 45be 8101 57be
00000270: bebd 693e 9f30 8b3e c551 3f3c 3bd8 fdbc
00000280: 21f9 7e3e 2ced 02bb 1ea3 233c 716c 0bbd
00000290: cb44 f8bd 6f59 203e ebec 4e3e 7c8a 9ebd
000002a0: 6e4c 00bc 427f 22bf 654b 16be ab86 d93c
000002b0: ba88 0fbe d040 c3bd fbec 363e 39f6 883d
000002c0: 0b48 05be e14b dabd d18b c2bd baf9 8f3c
000002d0: 2e85 16bf 43b9 bf3e 401b 33be 6a92 acbd
000002e0: 96fa 83bd faf9 f3be 92fd 443d 25ba 6dbd
000002f0: 17ba ae3e da34 8bbd 7a7b b7bd 1e4d 3b3e
00000300: 56b6 113e cee3 d5bd 0c32 a5be 34ae db3d
00000310: 29b0 f33c 0003 11be 2047 1cbe d2fa cdbd
00000320: dc31 cd3d 6d2d 63be 3eac 133e 083d 5bbc
00000330: 7210 6bbe 568f 6abd 7ece ba3e 7a72 bebe
00000340: 5aaa c43e beac 5abd d554 183e 9d58 343d
00000350: d939 debc 3ac2 74be 28c3 e23e dfde 7ebd
00000360: 2008 18bd ffb9 64bd 2633 cb3c 8e7f 01be
00000370: c2de 173d 1d39 c43d 7907 963d b0c7 3ebe
00000380: 2b68 37bc e86e a33d caeb 133c 4a62 ef3d
00000390: 3b1f 203d 6d88 1abd 0e3e f5bc dcc0 2a3e
000003a0: 6782 df3c 04ac ba3d 5717 e2bd 2cda debe
000003b0: 6db0 2e3d b549 343d c154 9b3d b24f e73c
000003c0: 9983 ea3d 24e2 1cbe f04a 913d 0156 153e
000003d0: c8e2 013e 524a e2bd 3044 063e e3fb bcbd
000003e0: 29b9 1cbd a936 afbd 3428 d53e 2ce7 7b3e
000003f0: 36f0 563d 7441 c73d 2c2f 443e b8cf 023e

1001 f4 [72]
0.11559159 0.25769642 0.10247425 -0.17345966 -0.3501761 -0.24270256 -0.50777584 -0.020082574
-0.054042213 0.085983284 0.39816463 0.20437294 0.19131844 0.25092724 -0.19882572 0.23992589
0.25420243 -0.09631713 -0.4131351 -0.095304005 0.028349461 -0.158963 -0.22399437 -0.17731813
0.32329556 0.08759958 0.2697342 -0.29312629 -0.36732936 0.117522776 -0.16900393 0.13672122
0.4337907 -0.03976055 -0.2162725 -0.15977225 0.28624105 -0.1388708 -0.18238784 0.22212087
-0.19303077 0.0993305 -0.098561816 0.41465065 -0.31290781 0.014451239 0.38255933 -0.10401478
0.018628176 -0.13629094 -0.0510734 -0.28742307 -0.060827002 0.6042872 -0.09325086 0.15995935
0.36177802 0.11495255 0.05712522 -0.083881326 0.016168226 -0.09627531 0.36405233 -0.3055959
0.057688966 0.11336541 -0.13346541 0.46205783 -0.054395936 0.24247192 0.18632507 -0.26098433
00000000: 49bb ec3d c9f0 833e 05de d13d 699f 31be
00000010: 484a b3be 0587 78be 99fd 01bf 3684 a4bc
00000020: 5e5b 5dbd 0118 b03d 3cdc cb3e 2447 513e
00000030: fbe8 433e 8979 803e f898 4bbe 22af 753e
00000040: d226 823e ea41 c5bd 7286 d3be bf2e c3bd
00000050: 213d e83c 32c7 22be c85e 65be e292 35be
00000060: ff86 a53e 6967 b33d 9a1a 8a3e a614 96be
00000070: 9812 bcbe c8af f03d 5e0f 2dbe a600 0c3e
00000080: d119 de3e f5db 22bd 8a76 5dbe 569b 23be
00000090: 308e 923e 2634 0ebe e1c3 3abe a773 633e
000000a0: dca9 45be ca6d cb3d c7da c9bd 174d d43e
000000b0: 7435 a0be e4c4 6c3c d1de c33e b305 d5bd
000000c0: 1e9a 983c da8f 0bbe 5732 51bd 1e29 93be
000000d0: bc25 79bd 91b2 1a3f 4ffa bebd 62cc 233e
000000e0: f83a b93e 3e6c eb3d 22fc 693d f9c9 abbd
000000f0: 3a73 843c fd2b c5bd 1165 ba3e 1177 9cbe
00000100: 444b 6c3d 202c e83d 28ab 08be d892 ec3e
00000110: 46ce 5ebd 8f4a 783e 00cc 3e3e bd9f 85be

1002 f4 [4]
1.0 1.0 2.0 2.0
00000000: 0000 803f 0000 803f 0000 0040 0000 0040

784 f4 [24, 3, 3, 3]
-0.06149401 -0.051001295 -0.033021264 -0.043949783 -0.049724974 -0.020503804 -0.04466531 -0.068005346
-0.0391636 -0.069541365 -0.041452564 -0.06317828 -0.09057553 -0.11608133 -0.08031058 -0.10548861
-0.09262862 -0.083277814 0.118780196 0.10613763 0.08939102 0.1307234 0.161697 0.093161836
0.14124636 0.15273641 0.11034545 0.2689022 -0.18224101 -0.1272193 -0.13256858 -0.4869882
0.16427787 -0.06310533 0.1219678 0.28254634 0.56184196 -0.18924731 -0.22833861 -0.17611153
-0.8536094 -0.052497655 -0.20413464 0.011078 0.64616543 0.5524595 0.12970497 -0.086180955
0.058316037 -0.5944384 -0.2952559 -0.19515173 -0.20386456 0.432117 0.1974958 0.1878438
0.09903358 0.09721057 0.0744979 0.13027619 0.13460365 0.13086481 0.10712246 -0.25410095
-0.31798643 -0.22819656 -0.3270937 -0.4206019 -0.18122734 -0.20522788 -0.26337266 -0.10822722
0.039551437 0.16285166 0.1031581 0.202779 0.33083218 0.053768847 0.06874851 0.09710707
0.006899865 -0.19109347 -0.2331457 -0.09157233 -0.22023404 -0.34220195 -0.16641292 -0.11852648
-0.15547922 -0.058363542 0.24089229 0.28425956 0.15623476 0.26251027 0.29874644 0.20332006
0.19489473 0.20606463 0.16303965 -0.05834523 -0.051586855 -0.08279865 -0.06620642 0.007879312
-0.040931184 -0.076823406 -0.076034606 -0.08994618 0.32309642 -0.33694786 -0.10739425 0.42636475
-0.15921403 -0.22019655 0.30377844 -0.09342388 -0.1389199 0.6790658 -0.5513437 -0.36746722
0.76762897 -0.14893502 -0.5419943 0.49758708 0.021507898 -0.42385954 0.54313093 -0.33685324
-0.36146146 0.6162392 -0.14264528 -0.525724 0.5549736 0.029965468 -0.41631278 0.018377459
0.07619734 -0.013404189 0.05248558 0.130948 0.05151682 0.040576357 0.09574534 0.0532185
0.045962356 0.11075081 0.0444404 0.054196503 0.10154526 0.06173589 0.013302996 0.048116844
0.0126487585 0.067032635 0.10803861 0.05426919 0.055357177 0.12591195 0.05431059 -0.0030168432
0.044231277 0.049265906 -0.2554217 0.029497523 0.40111062 -0.41580594 -0.097931586 0.56443
-0.2658415 -0.3217501 0.39357534 -0.49627087 0.036540736 0.63515294 -0.6869288 -0.1793948
0.8270964 -0.36255935 -0.5585956 0.6340568 -0.22751738 0.02650789 0.3725224 -0.34918836
-0.16394815 0.49891827 -0.19187973 -0.41315305 0.41993737 0.26407745 -0.27338198 0.36802673
-0.15382524 0.33049956 0.15334341 -0.22888793 0.3064414 0.064227924 -0.13432294 -0.055847034
0.17589773 0.16641958 0.00019111241 -0.114446305 0.22368096 0.027844992 0.06044442 0.14279956
0.4144489 -0.41247332 0.10493163 -0.22473769 0.23604831 0.26832035 -0.19104718 0.21779962
-0.0676444 -0.32240415 -0.15068084 0.08539202 -0.022064205 -0.28978 0.13161165 0.3570107
0.23869614 -0.18394868 -0.6328439 -0.3651266 0.18535513 -0.12397757 -0.44892493 0.3753969
0.7280746 0.40289918 -0.3420578 -0.78771776 -0.58190334 0.30757755 -0.14164265 -0.52610046
0.6476202 0.90170044 0.54600376 -0.54713094 0.014176015 0.22497258 0.09274531 0.5107403
0.082261 0.17002486 0.1498002 -0.40425676 -0.78215665 0.110771574 0.25906727 0.014983785
00000000: 25e1 7bbd bce6 50bd 4e41 07bd b004 34bd
00000010: 6aac 4bbd 98f7 a7bc f9f2 36bd 6346 8bbd
00000020: 036a 20bd b46b 8ebd 2aca 29bd 9d63 81bd
00000030: aa7f b9bd 0cbc edbd e079 a4bd 6a0a d8bd
00000040: 13b4 bdbd 8f8d aabd 0843 f33d b05e d93d
00000050: a412 b73d 5bdc 053e e693 253e a2cb be3d
00000060: e3a2 103e ef66 1c3e ccfc e13d 8dad 893e
00000070: 639d 3abe c745 02be 0fc0 07be 8456 f9be
00000080: 7538 283e 5e3d 81bd 41ca f93d eaa9 903e
00000090: e0d4 0f3f 0cca 41be 99d1 69be 9556 34be
000000a0: 2586 5abf c807 57bd ac08 51be 8080 353c
000000b0: 196b 253f fc6d 0d3f 61d1 043e a47f b0bd
000000c0: ccdc 6e3d 1d2d 18bf c82b 97be dbd5 47be
000000d0: dfc1 50be 703e dd3e 573c 4a3e 205a 403e
000000e0: 1ed2 ca3d 5616 c73d 5b92 983d 1f67 053e
000000f0: 8ad5 093e 6d01 063e 0563 db3d 8519 82be
00000100: 1ecf a2be 5cac 69be d378 a7be 2259 d7be
00000110: a993 39be 4227 52be c8d8 86be 3ca6 ddbd
00000120: b000 223d 96c2 263e 8e44 d33d 4ca5 4f3e
00000130: d662 a93e b93c 5c3d 05cc 8c3d 12e0 c63d
00000140: 4318 e23b 02ae 43be bfbd 6ebe 468a bbbd
00000150: 0885 61be 1835 afbe 2668 2abe 03be f2bd
00000160: f235 1fbe 9c0e 6fbd 78ac 763e 788a 913e
00000170: 01fc 1f3e bf67 863e 4bf5 983e 2233 503e
00000180: 7c92 473e 9b02 533e def3 263e 68fb 6ebd
00000190: bd4c 53bd 5792 a9bd 3b97 87bd 3b18 013c
000001a0: 75a7 27bd 9755 9dbd 08b8 9bbd b435 b8bd
000001b0: e56c a53e 6e84 acbe 84f1 dbbd 7b4c da3e
000001c0: 0109 23be 347b 61be d988 9b3e 0555 bfbd
000001d0: 0541 0ebe 42d7 2d3f dc24 0dbf aa24 bcbe
000001e0: 5583 443f 6c82 18be 23c0 0abf bcc3 fe3e
000001f0: 5531 b03c 1e04 d9be a10a 0b3f 0778 acbe
00000200: 7a11 b9be dac1 1d3f 9b11 12be d995 06bf
00000210: c012 0e3f 247a f53c f326 d5be 538c 963c
00000220: 5a0d 9c3d 3e9d 5bbc 1ffb 563d 3c17 063e
00000230: 4d03 533d 6533 263d 2216 c43d a4fb 593d
00000240: 0643 3c3d 52d1 e23d 2307 363d 27fd 5d3d
00000250: f6f6 cf3d c6de 7c3d cff4 593c 2b16 453d
00000260: bd3c 4f3c 6848 893d 5943 dd3d 5f49 5e3d
00000270: 35be 623d 10ef 003e c874 5e3d 3bb6 45bb
00000280: db2b 353d 0ccb 493d a2c6 82be caa4 f13c
00000290: 5f5e cd3e 84e4 d4be 5b90 c8bd 7c7e 103f
000002a0: 611c 88be 6ebc a4be b582 c93e 3717 febe
000002b0: bdab 153d 6299 223f 91da 2fbf 45b3 37be
000002c0: 97bc 533f 61a1 b9be 1f00 0fbf 8c51 223f
000002d0: 51fa 68be 1327 d93c 42bb be3e d1c8 b2be
000002e0: 06e2 27be 3772 ff3e 1f7c 44be cc88 d3be
000002f0: 0802 d73e 2935 873e b9f8 8bbe 006e bc3e
00000300: 5d84 1dbe 3d37 a93e 0e06 1d3e 9961 6abe
00000310: e3e5 9c3e ee89 833d f48b 09be dcbf 64bd
00000320: 891e 343e e569 2a3e 5965 4839 d362 eabd
00000330: 9f0c 653e 2e1b e43c 9194 773d 0c3a 123e
00000340: a532 d43e b42f d3be 65e6 d63d a321 66be
00000350: a6b6 713e 4961 893e dfa1 43be dd06 5f3e
00000360: 2689 8abd 2812 a5be 144c 1abe 03e2 ae3d
00000370: febf b4bc 0b5e 94be 34c5 063e 1bca b63e
00000380: c36c 743e 0b5d 3cbe 0f02 22bf e0f1 babe
00000390: bccd 3d3e f4e7 fdbd 7dd9 e5be 0634 c03e
000003a0: 1963 3a3f cd48 ce3e 3322 afbe dfa7 49bf
000003b0: 9ef7 14bf ce7a 9d3e c50a 11be 85ae 06bf
000003c0: 70ca 253f d7d5 663f e7c6 0b3f c610 0cbf
000003d0: 8442 683c 365f 663e 41f1 bd3d e0bf 023f
000003e0: 7578 a83d ff1a 2e3e 3965 193e befa cebe
000003f0: 6b3b 48bf 35dc e23d 77a4 843e 8d7e 753c

785 f4 [24]
0.40448764 0.82281613 0.57341576 0.42030492 0.107696906 0.049405813 0.14049003 -1.5579274
0.1000172 0.029966801 0.093499534 -0.00028952915 0.37953684 0.92431396 0.07952612 -0.0006262442
0.7606336 0.19725817 0.071541995 0.017671779 0.103328615 1.6308143 0.025152072 0.16769756
00000000: 0119 cf3e 14a4 523f 60cb 123f 3532 d73e
00000010: 3290 dc3d c05d 4a3d 9edc 0f3e 2a6a c7bf
00000020: d1d5 cc3d f07c f53c af7c bf3d f2cb 97b9
00000030: a752 c23e d79f 6c3f 97de a23d 892a 24ba
00000040: e2b8 423f 0cfe 493e 9c84 923d 68c4 903c
00000050: f49d d33d 86be d03f b80b ce3c e9b8 2b3e

787 f4 [24, 1, 3, 3]
-0.012389827 -0.024941254 0.067590415 -1.4872264 -0.47150716 1.5404848 -1.5962507 -0.5198509
1.5578908 0.03503194 -0.009870158 0.044707887 0.17970614 -0.037731413 -0.02763024 0.21866462
0.13856827 -0.10403734 -0.008873857 0.036096737 -0.27125165 -0.094198 0.022348624 0.2994238
-0.55429906 0.16211902 2.0683348 0.0098679755 0.0048705093 -0.08704067 0.64531684 0.1328642
-0.3125831 1.1423575 0.38215536 -0.4097095 0.006102658 0.03902124 -0.01732395 0.067691594
0.034067888 -0.07538135 0.029197728 -0.052749783 -0.2932542 -0.039747156 -0.009313589 0.083725415
-0.7759565 0.014258005 0.70739084 -0.79148835 -0.023563182 0.7249719 -0.016379684 0.02992709
-0.04008124 0.021697283 0.02205982 -0.09717946 -0.017571544 -0.070409015 -0.23042293 0.0125279045
0.22330151 0.2942126 -0.4311125 0.4207311 0.9308734 -0.20521598 0.5729148 1.285528
-0.0029041157 -0.05874032 0.030068452 -0.06240206 -0.043099165 0.102847636 -0.023866775 0.023200287
0.29800493 -0.022906004 -0.19961242 0.008111106 0.005317067 -0.047801252 -0.08066977 0.02237336
0.069595784 -0.13629673 0.035318825 -0.09564328 0.06560985 0.0143991085 -0.20782246 -0.36734515
0.32153755 -0.83355904 -1.7141932 -2.0257132e-14 -2.6847302e-14 -3.0782827e-14 -1.46535e-14 -1.1960146e-14
1.999726e-14 -2.06609e-14 2.5594278e-14 2.8615653e-14 0.079598665 0.03334433 0.16132727 -0.053467184
-0.33433744 -0.44936055 -0.008066078 -0.22901691 -0.3655909 -0.04114178 -0.03657636 -0.0200579
-0.020109037 -0.08278105 -0.19570947 0.01645695 -0.093089506 -0.15658565 -0.018155323 0.063351594
-0.008447265 0.036227603 0.034104005 -0.14374395 -0.02492803 -0.028242966 -0.27980742 3.433532e-14
1.7345057e-15 -2.1646938e-14 -1.38440005e-14 -3.0985624e-14 1.1563903e-15 -4.0424373e-14 2.5874673e-14 -6.349972e-15
-0.013265124 -0.070108436 0.088375084 0.47691122 -0.12523787 -0.7811272 0.6598908 -0.18878175
-1.3955578 -0.1872125 0.04337955 0.14098261 -1.1127836 0.30112094 1.9011502 -0.5572141
0.12344923 1.3382268 -0.046372917 -0.03640278 -0.1143431 -0.051089216 -0.23796384 -0.2695276
-0.07722582 -0.17624258 -0.2513761 0.027146617 0.12267455 0.021497522 0.12326295 0.11730753
-0.18307404 0.039152287 -0.03651189 -0.39368793 0.033385284 -0.014525582 -0.01656326 0.11327299
0.026329169 0.026334718 0.07880227 0.06750857 0.032019295 0.055674024 -0.0016897519 -0.06726406
0.761799 -0.08808437 -0.67004037 0.56725377 -0.10485651 -0.6138688 -0.020719571 0.0768117
0.022063615 0.085273914 0.027793927 -0.12478469 0.03213884 -0.10150631 -0.3883445 0.019678472
0.027773563 0.053996116 0.009393176 0.092398524 0.10958568 0.0011153241 0.11437408 0.1154533
00000000: b3fe 4abc 9a51 ccbc d86c 8a3d 6f5d bebf
00000010: 6369 f1be 9b2e c53f f151 ccbf f314 05bf
00000020: f768 c73f a77d 0f3d 71b6 21bc 9e1f 373d
00000030: e304 383e 418c 1abd d058 e2bc 9ee9 5f3e
00000040: d7e4 0d3e 8711 d5bd a763 11bc 2cda 133d
00000050: 7fe1 8abe e2ea c0bd 7614 b73c 144e 993e
00000060: 8be6 0dbf 8702 263e 995f 0440 4aad 213c
00000070: cb98 9f3b 6142 b2bd 7c33 253f 8e0d 083e
00000080: e40a a0be c538 923f dea9 c33e 72c5 d1be
00000090: cef8 c73b bcd4 1f3d f5ea 8dbc e4a1 8a3d
000000a0: c58a 0b3d 8a61 9abd 1330 ef3c 2810 58bd
000000b0: 6a25 96be eacd 22bd 0698 18bc 3b78 ab3d
000000c0: 16a5 46bf 689a 693c 9117 353f fb9e 4abf
000000d0: 9307 c1bc c297 393f b02e 86bc a829 f53c
000000e0: 3a2c 24bd 80be b13c ccb6 b43c 0606 c7bd
000000f0: 33f2 8fbc 9a32 90bd fdf3 6bbe d741 4d3c
00000100: 27a9 643e 09a3 963e c7ba dcbe 116a d73e
00000110: b84d 6e3f 2324 52be 8baa 123f 2e8c a43f
00000120: fa52 3ebb b199 70bd 1d52 f63c 4d99 7fbd
00000130: c088 30bd c8a1 d23d 4184 c3bc 870e be3c
00000140: 1a94 983e 5fa5 bbbc 3367 4cbe 72e4 043c
00000150: ca3a ae3b 3fcb 43bd 3136 a5bd 5648 b73c
00000160: 3c88 8e3d 5f91 0bbe 79aa 103d a0e0 c3bd
00000170: 755e 863d 3dea 6b3c 69cf 54be aa14 bcbe
00000180: 92a0 a43e 2064 55bf af6a dbbf c475 b6a8
00000190: aad1 f1a8 2fa2 0aa9 acfc 83a8 7074 57a8
000001a0: 8b1e b428 cb18 baa8 6388 e628 9adf 0029
000001b0: a004 a33d 1094 083d fa32 253e 6800 5bbd
000001c0: 472e abbe 9612 e6be 9527 04bc 6983 6abe
000001d0: bb2e bbbe 4884 28bd 18d1 15bd 7750 a4bc
000001e0: b5bb a4bc 1c89 a9bd 1068 48be bad0 863c
000001f0: b6a5 bebd fd57 20be 79ba 94bc 7bbe 813d
00000200: 6666 0abc 6563 143d a4b0 0b3d 9d31 13be
00000210: de35 ccbc cb5d e7bc eb42 8fbe eea1 1a29
00000220: f7f7 f926 71fa c2a8 2f64 79a8 fe8b 0ba9
00000230: 46a7 a626 210e 36a9 ef0e e928 27c8 e4a7
00000240: f655 59bc 0395 8fbd fffd b43d b52d f43e
00000250: 5b3e 00be f4f7 47bf 9aee 283f 0150 41be
00000260: a3a1 b2bf a2b4 3fbe c1ae 313d bf5d 103e
00000270: b16f 8ebf 862c 9a3e e458 f33f 95a5 0ebf
00000280: f3d2 fc3d 044b ab3f 87f1 3dbd 151b 15bd
00000290: b72c eabd ed42 51bd cbac 73be 86ff 89be
000002a0: 9228 9ebd ef78 34be 5eb4 80be 9562 de3c
000002b0: cb3c fb3d 921b b03c 4971 fc3d ee3e f03d
000002c0: c377 3bbe 265e 203d 7e8d 15bd 7791 c9be
000002d0: 02bf 083d b5fc 6dbc adaf 87bc abfb e73d
000002e0: 45b0 d73c e8bb d73c 1663 a13d ef41 8a3d
000002f0: aa26 033d 720a 643d aa7a ddba bdc1 89bd
00000300: 4205 433f 9465 b4bd c487 2bbf 8b37 113f
00000310: 03bf d6bd 8126 1dbf 17bc a9bc 744f 9d3d
00000320: c1be b43c 17a4 ae3d 17b0 e33c 1e8f ffbd
00000330: 04a4 033d 8ae2 cfbd 17d5 c6be bf34 a13c
00000340: 6285 e33c 082b 5d3d d6e5 193c 703b bd3d
00000350: 756e e03d 1130 923a f53c ea3d c872 ec3d

788 f4 [24]
0.39586645 -0.26882777 -0.9277489 -0.67951024 0.08841229 0.0607695 0.14170532 -0.055429358
-0.09406788 0.18211198 0.37835017 2.68733e-08 0.13033162 0.4340216 0.12101482 2.6443658e-08
1.0374172 -0.033989824 0.23402575 0.07035989 -0.11754815 0.20382187 0.15310113 -0.22377619
00000000: 02af ca3e cba3 89be f480 6dbf 62f4 2dbf
00000010: 8111 b53d 70e9 783d 331b 113e e509 63bd
00000020: a9a6 c0bd 907b 3a3e 1db7 c13e 03d7 e632
00000030: a775 053e 1438 de3e 9ed6 f73d 3826 e332
00000040: 16ca 843f ea38 0bbd 72a4 6f3e d918 903d
00000050: 16bd f0bd aeb6 503e 8bc6 1c3e 9625 65be

790 f4 [24, 24, 1, 1]
-0.0021597154 0.0680103 0.0108214645 0.008306756 0.0023995182 0.00037907937 0.03291246 -0.011776493
0.004761573 0.05008853 0.022808632 -1.8671581e-13 -0.22807612 -0.13338664 0.018885126 -1.858953e-13
-0.013819736 0.1881603 -0.046980303 0.011548745 0.016409159 -0.06357402 -0.01925243 -0.04226365
-0.045088597 0.09870015 -0.16563036 0.008233223 -0.0029528376 -0.005960629 -0.0069014365 0.031384125
-0.0222646 0.019895991 1.2638648 1.1103545e-12 -0.18935229 -0.15358469 0.019986903 4.591135e-13
-0.23630917 -0.019867161 0.0043054465 0.02321482 0.038965445 -0.06828422 -0.011771747 -0.048834313
0.10109708 0.0077430652 0.52179265 0.050863054 0.04853571 -0.045414656 0.038664646 0.029198041
0.013798759 0.020958358 -0.3401146 -3.9134765e-13 0.026065027 -0.05945602 0.07179377 -1.7281132e-13
-0.5232868 -0.020040017 -0.06769645 -0.005285616 -0.030497435 0.02815446 0.04163483 -0.074764185
-0.11616634 -0.2275525 -0.03923702 0.042822417 0.07913015 0.0244634 0.30841586 0.051630266
0.0889487 0.062847175 0.027165983 -4.7256583e-13 0.27582887 0.44155166 -0.20778914 4.5508313e-13
-0.001984752 0.096731864 -0.7806153 -0.015278556 -0.027832592 -0.09217929 0.11717824 -0.6113767
0.08362308 -0.05717658 0.05259676 0.87122685 -0.02754859 -0.006569583 0.010862677 0.019028775
-0.004991588 -0.014456302 0.11975427 1.6256102e-13 0.05662726 0.023234371 -0.0028695702 -8.746775e-14
0.011282049 0.011913435 -0.02064457 -0.013364255 0.015360601 -0.03523258 -0.014290878 -0.023280306
0.17968938 0.06251023 -0.022408439 0.033015236 0.033743925 0.27974153 -0.07648607 0.18638873
-0.043074176 -0.044558227 -0.036610246 -6.1747813e-13 -0.07229188 -0.17738941 0.018698081 -3.520404e-13
0.058548264 -0.04437979 0.43976158 0.04960031 -0.096178174 0.57454634 0.041568276 0.36342493
-0.022575093 0.0053331633 0.025474833 0.024054902 0.0053418083 0.7198888 -0.052734096 0.20855975
0.026185457 -0.100465104 -0.027193738 -2.5306783e-13 0.1076232 0.03212875 0.019405095 2.18449e-13
-0.047211315 0.0499859 -0.029350687 -0.0651467 -0.2901799 0.01151349 -0.03947281 -0.039296787
-0.037052955 0.07206698 -0.0061220266 -0.019049868 -0.11108976 0.03785234 0.09275979 -0.070239134
0.102386184 0.03590654 -0.057643145 2.2124648e-13 -0.17065309 -0.15188241 0.017471699 4.4935407e-13
-0.07474245 0.011221618 -0.36854827 0.03082074 0.09702427 -0.07968659 -0.061866 -0.07766988
-0.051749643 -0.028350549 0.55848557 -0.037266713 -0.022138434 0.003940744 0.0058235675 -0.015527805
-0.002524906 -0.045485415 0.07935325 -7.9839706e-14 -0.018624289 -0.005354422 -0.010822387 -2.4616369e-13
0.12234447 0.029227346 0.015805334 -0.019187817 0.0025700002 0.01202371 0.025339838 -0.013354158
0.9424532 0.11617253 -0.18442218 -0.25009423 0.0019666553 0.095411696 -0.21846043 -0.06465027
0.063033 0.07983257 0.63916147 7.740401e-13 -0.023884427 -0.078647785 -0.04668717 -3.079315e-13
1.2254004 -0.07871532 0.20926389 -0.04083436 0.018566694 -0.012040725 0.059136756 0.15153022
0.0015398399 0.22892477 0.04469232 -0.0030694362 0.09938242 -0.03098791 0.09387307 -0.1505486
-0.07372206 -0.06773331 0.052984666 -2.8079766e-13 -0.13111885 -0.060656276 0.012044744 -1.6811105e-13
00000000: 038a 0dbb fc48 8b3d 834c 313c 0f19 083c
00000010: 3c41 1d3b 2cbf c639 37cf 063d 31f2 40bc
00000020: f806 9c3b a129 4d3d 2bd9 ba3c 2b39 52aa
00000030: c98c 69be 8296 08be fbb4 9a3c ac4c 51aa
00000040: 2d6c 62bc 18ad 403e 6b6e 40bd f336 3d3c
00000050: 806c 863c 1933 82bd 46b7 9dbc a61c 2dbd
00000060: d2ae 38bd 4e23 ca3d 019b 29be a4e4 063c
00000070: 6584 41bb 6151 c3bb 7225 e2bb a48c 003d
00000080: 4064 b6bc ebfc a23c 52c6 a13f bd44 9c2b
00000090: 91e5 41be 4e45 1dbe 93bb a33c 9d3a 012b
000000a0: 08fb 71be 75c0 a2bc b414 8d3b 022d be3c
000000b0: 3b9a 1f3d 99d8 8bbd 49de 40bc 7d06 48bd
000000c0: fc0b cf3d 8ab9 fd3b 3494 053f c755 503d
000000d0: 61cd 463d b804 3abd d25e 1e3d bb30 ef3c
000000e0: 3114 623c ddb0 ab3c 8023 aebe 244f dcaa
000000f0: 5386 d53c 2888 73bd 9d08 933d 7991 42aa
00000100: 20f6 05bf f62a a4bc 70a4 8abd f632 adbb
00000110: c2d5 f9bc 2fa4 e63c 4989 2a3d f71d 99bd
00000120: 9ee8 edbd 8603 69be ffb6 20bd 8f66 2f3d
00000130: fd0e a23d 7867 c83c afe8 9d3e 427a 533d
00000140: bc2a b63d 05b6 803d 328b de3c f503 05ab
00000150: 7139 8d3e 0f13 e23e adc6 54be 3218 002b
00000160: 9d12 02bb 5b1b c63d 68d6 47bf e952 7abc
00000170: 2d01 e4bc 7fc8 bcbd 25fb ef3d 2f83 1cbf
00000180: 9442 ab3d fd31 6abd b36f 573d b908 5f3f
00000190: 95ad e1bc a845 d7bb 5ff9 313c 3ce2 9b3c
000001a0: 7a90 a3bb 20da 6cbc ba41 f53d 0607 372a
000001b0: fcf1 673d 0256 be3c 660f 3cbb baf5 c4a9
000001c0: 58d8 383c 9130 433c cd1e a9bc c0f5 5abc
000001d0: 08ab 7b3c 0a50 10bd 4924 6abc 57b6 bebc
000001e0: 7e00 383e 5d05 803d e791 b7bc fc3a 073d
000001f0: 1237 0a3d 483a 8f3e bba4 9cbd b0dc 3e3e
00000200: 8c6e 30bd b082 36bd a0f4 15bd fdcd 2dab
00000210: c40d 94bd 92a5 35be b82c 993c 5e2e c6aa
00000220: 4ed0 6f3d 95c7 35bd 6e28 e13e b229 4b3d
00000230: 10f9 c4bd 7815 133f 7f43 2a3d d512 ba3e
00000240: 67ef b8bc d1c1 ae3b 99b0 d03c c90e c53c
00000250: 560a af3b a24a 383f b5ff 57bd b090 553e
00000260: e282 d63c a6c0 cdbd 67c5 debc eb76 8eaa
00000270: 8d69 dc3d 7099 033d 6ff7 9e3c a3f3 752a
00000280: a760 41bd 04be 4c3d da70 f0bc a26b 85bd
00000290: 7692 94be 14a3 3c3c 3eae 21bd abf5 20bd
000002a0: d7c4 17bd da97 933d 489b c8bb 780e 9cbc
000002b0: 0783 e3bd 0e0b 1b3d d8f8 bd3d 89d9 8fbd
000002c0: d9af d13d bc12 133d 381b 6cbd f519 792a
000002d0: afbf 2ebe 1087 1bbe cf20 8f3c bff6 fc2a
000002e0: 9212 99bd e1da 373c 5cb2 bcbe c77b fc3c
000002f0: a9b4 c63d b932 a3bd 3467 7dbd 6311 9fbd
00000300: 6ff7 53bd 693f e8bc e9f8 0e3f fba4 18bd
00000310: a95b b5bc 5b21 813b a0d3 be3b 5668 7ebc
00000320: e578 25bb ea4e 3abd f583 a23d 75c8 b3a9
00000330: f791 98bc 2674 afbb 6250 31bc ed93 8aaa
00000340: bd8f fa3d 306e ef3c 307a 813c c52f 9dbc
00000350: 736d 283b 18ff 443c 7e95 cf3c 66cb 5abc
00000360: 9d44 713f ddeb ed3d 2bd9 3cbe 5a0c 80be
00000370: 00e3 003b 3567 c33d 17b4 5fbe 5c67 84bd
00000380: 7217 813d 427f a33d 16a0 233f 78df 592b
00000390: 46a9 c3bc 1712 a1bd 0c3b 3fbd 9b59 adaa
000003a0: ecd9 9c3f 7f35 a1bd 4649 563e ee41 27bd
000003b0: 2e19 983c 7646 45bc 6239 723d bd2a 1b3e
000003c0: 74d4 c93a 416b 6a3e 4b0f 373d 9828 49bb
000003d0: 0389 cb3d 5cda fdbc 8640 c03d 6a29 1abe
000003e0: 97fb 96bd c3b7 8abd 7306 593d 3513 9eaa
000003f0: 0544 06be b772 78bd 5157 453c b646 3daa

791 f4 [24]
0.14841573 -0.11068248 0.11386365 0.38503802 0.13138023 0.049050547 0.016363766 0.1571035
0.033054933 -0.026187828 -0.004144921 0.05007791 0.1957065 0.16675246 -0.040867835 0.08878293
0.43212602 0.06032834 0.09481522 0.06878466 0.34466967 -0.10526581 0.05006596 0.09095958
00000000: 4bfa 173e 7fad e2bd 5831 e93d b423 c53e
00000010: 8a88 063e 3ae9 483d 4e0d 863c bddf 203e
00000020: 9c64 073d db87 d6bc 1ed2 87bb 7f1e 4d3d
00000030: 4967 483e 28c1 2a3e 0865 27bd d3d3 b53d
00000040: 9f3f dd3e d91a 773d 7b2e c23d f9de 8c3d
00000050: 8b78 b03e 9a95 d7bd f711 4d3d 0449 ba3d

793 f4 [24, 24, 1, 1]
0.1816858 0.026973266 0.20444831 0.22206503 0.0156227 0.097077474 0.0068068113 0.17631303
0.0065316358 0.012950158 0.063886866 2.285824e-13 0.15925033 0.02873659 0.0113132745 -2.7313043e-14
0.29643866 0.19196586 -0.005280081 0.017878734 0.0044418178 0.04675492 0.01883222 0.010928722
0.082604036 0.004116117 0.056268573 0.058742177 0.23449048 0.44943655 0.16792011 0.034296967
-0.3209602 -0.08251544 0.041113205 -3.484675e-13 -0.093412295 0.061687484 -0.29921475 1.524377e-14
0.069280185 0.03323658 0.057652455 -0.3917553 -0.1424674 0.165824 0.17447709 -0.18472731
0.053649258 -0.0414166 0.024780694 -0.020678906 0.2050633 -0.25219813 -0.5537059 0.0024612318
0.0613073 -0.11339639 0.0060771536 3.0291674e-13 -0.02536248 -0.07091526 0.041972633 5.5253718e-14
0.025911095 -0.13111977 -0.018912477 0.11383446 0.090013824 -0.19295534 -0.06868603 -0.05438403
0.15212667 -0.37607595 0.060307015 0.06144702 0.106587246 0.12857415 0.14171703 -0.1505759
-0.029214691 -0.46462083 -0.10574825 1.8703604e-13 0.056716166 0.2081448 -0.12091243 -2.278458e-13
0.07947772 0.0587524 -0.1724923 -0.11973143 -0.41231522 0.23554672 0.17498055 -0.46380207
-0.23631124 0.019875089 -0.10717305 -0.16703841 -0.30376118 0.056394678 -0.28627834 -0.18633927
0.08693627 -0.07483474 -0.14556713 2.810937e-13 -0.095959686 -0.018099204 0.09324974 4.2737995e-13
-0.37102693 -0.15546915 -0.11929603 0.08219496 -0.045608584 0.058118735 -0.2919761 0.0017336329
-0.19194706 -0.014440247 -0.4144269 -0.32600924 -0.024340862 -0.088932954 -0.023699066 -0.24440186
-0.019893799 -0.0102302255 -0.11060933 7.6020346e-14 -0.27915668 -0.035723694 0.0033996257 5.844363e-14
-0.4280894 -0.41924956 -0.025825856 -0.0081880335 -0.008964194 -0.04833069 -0.036259957 -0.0009807715
0.0013258208 0.2410817 0.16221079 0.089439854 -0.3452966 0.28327018 -0.3452905 0.0053906287
-0.23522751 0.21821706 0.121087894 1.8826883e-13 -0.08049236 -0.50522065 -0.18395357 4.4958834e-13
0.14131111 0.18141386 0.15925717 -0.09027783 0.33528307 0.20723934 -0.42332947 0.2701252
0.017846815 0.30834377 0.10062648 0.08555019 -0.09010285 -0.0393432 -0.1409723 0.17488647
-0.39520898 0.27648833 -0.03540135 -3.0674448e-13 0.1351736 -0.3382608 -0.27972126 2.673159e-13
0.044244677 0.07965745 0.13534899 -0.28092554 0.26365227 0.1762636 -0.08072828 0.2230972
-0.069970265 0.01869408 -0.032838404 -0.105422735 -0.59725165 -0.21649913 0.25778186 -0.069046885
-0.034716643 -0.08641502 -0.021909337 -2.527869e-13 -0.13157749 -0.19915666 0.095887095 -1.893986e-15
-0.10837355 0.15225783 0.19049299 0.07643258 -0.114558324 -0.12910278 -0.041940793 0.059154186
0.04494999 0.12728542 0.07259063 0.07351822 -0.3779786 0.16433859 -0.36324087 0.16933325
0.113380395 -0.063000835 0.028880924 -2.5870715e-13 0.06536656 0.10675604 0.12926921 -1.2056236e-13
0.06523481 0.055059716 -0.10510657 0.18370244 -0.053231876 0.14374192 -0.30762404 -0.03334973
0.1641873 0.036079723 -0.08552061 0.020437257 0.10488456 -0.021764774 -0.11453924 0.0706087
0.2545986 0.15693782 0.017756814 7.9525504e-14 0.05521693 0.06860588 -0.2714085 -4.062697e-13
00000000: d80b 3a3e 0af7 dc3c e65a 513e 0465 633e
00000010: 5af6 7f3c 8ed0 c63d ac0b df3b 678b 343e
00000020: 5507 d63b e62c 543c 1ed7 823d 32ae 802a
00000030: 8512 233e ff68 eb3c 505b 393c 9703 f6a8
00000040: cfc6 973e b392 443e 8804 adbb 6c76 923c
00000050: ab8c 913b 1682 3f3d 0746 9a3c 620e 333c
00000060: 4e2c a93d 7ee0 863b e079 663d a39b 703d
00000070: 461e 703e 8c1c e63e 40f3 2b3e fa7a 0c3d
00000080: e554 a4be dbfd a8bd 5266 283d 762b c4aa
00000090: f24e bfbd 04ac 7c3d ad32 99be be4d 8928
000000a0: c5e2 8d3d 1523 083d fb24 6c3d 2794 c8be
000000b0: f9e2 11be c4cd 293e 1faa 323e 2829 3dbe
000000c0: 53bf 5b3d 74a4 29bd e200 cb3c cf66 a9bc
000000d0: 1dfc 513e 1d20 81be abbf 0dbf 9e4c 213b
000000e0: 5d1d 7b3d 5e3c e8bd dc22 c73b e786 aa2a
000000f0: fac4 cfbc 053c 91bd 7feb 2b3d 33d7 7829
00000100: 8143 d43c 4344 06be 57ee 9abc 0b22 e93d
00000110: 2b59 b83d 1696 45be 43ab 8cbd cac1 5ebd
00000120: 18c7 1b3e 078d c0be 7d04 773d dfaf 7b3d
00000130: 6a4a da3d f1a8 033e 451e 113e 9230 1abe
00000140: a653 efbc c8e2 edbe 8a92 d8bd 7895 522a
00000150: 364f 683d e923 553e f0a0 f7bd 0a44 80aa
00000160: 37c5 a23d 5ba6 703d d2a1 30be c135 f5bd
00000170: fb1a d3be 2933 713e 1a2e 333e 7777 edbe
00000180: 93fb 71be 15d1 a23c 8b7d dbbd 1e0c 2bbe
00000190: 9686 9bbe 1bfe 663d 1393 92be b9cf 3ebe
000001a0: a50b b23d f542 99bd 8d0f 15be df3d 9e2a
000001b0: 8386 c4bd c844 94bc b8f9 be3d f197 f02a
000001c0: 3ef7 bdbe 4e33 1fbe 7a51 f4bd d555 a83d
000001d0: 11d0 3abd e90d 6e3d e47d 95be 113b e33a
000001e0: c58d 44be c996 6cbc c32f d4be afea a6be
000001f0: 7d66 c7bc 7b22 b6bd 8b24 c2bc 7b44 7abe
00000200: 52f8 a2bc ad9c 27bc 2587 e2bd bf2e ab29
00000210: a0ed 8ebe 0253 12bd 41cc 5e3b 759a 8329
00000220: 892e dbbe e1a7 d6be bf90 d3bc 1a27 06bc
00000230: 8ede 12bc 67f6 45bd 5285 14bd 3b8d 80ba
00000240: 2ac7 ad3a 1fde 763e 961a 263e 3e2c b73d
00000250: b7ca b0be ca08 913e ebc9 b0be dfa3 b03b
00000260: 7bdf 70be 4b74 5f3e eefc f73d ccf8 532a
00000270: 2ed9 a4bd 2456 01bf 535e 3cbe 8218 fd2a
00000280: dcb3 103e 8ec4 393e 5014 233e 95e3 b8bd
00000290: 39aa ab3e 8d36 543e a4be d8be da4d 8a3e
000002a0: 7c33 923c 3cdf 9d3e 4215 ce3d f034 af3d
000002b0: d887 b8bd 5626 21bd 0b5b 10be 7015 333e
000002c0: d558 cabe e18f 8d3e 0201 11bd 8aae acaa
000002d0: f36a 0a3e 8530 adbe a037 8fbe 487c 962a
000002e0: e839 353d 7223 a33d ed98 0a3e 79d5 8fbe
000002f0: 6efd 863e 727e 343e de54 a5bd 9873 643e
00000300: 924c 8fbd 5424 993c 9081 06bd e0e7 d7bd
00000310: 7ce5 18bf f3b1 5dbe fcfb 833e 7468 8dbd
00000320: 0a33 0ebd 5cfa b0bd 367b b3bc 6e4e 8eaa
00000330: 40bc 06be b9ef 4bbe 7460 c43d e079 08a7
00000340: f4f2 ddbd 7ae9 1b3e 9810 433e af88 9c3d
00000350: 8e9d eabd 8533 04be 1cca 2bbd a94b 723d
00000360: 7b1d 383d 1c57 023e 65aa 943d b890 963d
00000370: 6986 c1be 6048 283e b5fa b9be b265 2d3e
00000380: fb33 e83d 9506 81bd b097 ec3c a1a3 91aa
00000390: e7de 853d e9a2 da3d 265f 043e bcbd 07aa
000003a0: d499 853d 4c86 613d 1d42 d7bd 7e1c 3c3e
000003b0: ab09 5abd 1531 133e e680 9dbe ba99 08bd
000003c0: b720 283e 55c8 133d 6e25 afbd 096c a73c
000003d0: b7cd d63d 0a4c b2bc 8d93 eabd 4b9b 903d
000003e0: bf5a 823e 4fb4 203e bd76 913c 5513 b329
000003f0: 262b 623d 3d81 8c3d 0ef6 8abe a2b5 e4aa

794 f4 [24]
-0.66137516 -0.36553138 0.5104503 -0.1331974 0.7088206 1.424571 -0.24721336 0.009009883
0.6788839 -0.22345148 -0.22491707 0.3418817 0.2342508 -0.29327938 -1.2380204 1.5503343
0.122009166 -0.20494637 -0.36796644 0.08827888 -0.11253827 2.4744902 0.43231046 -0.27388883
00000000: e24f 29bf ee26 bbbe dfac 023f e664 08be
00000010: 4475 353f 5858 b63f 8025 7dbe 309e 133c
00000020: 56cb 2d3f 77d0 64be a950 66be 1e0b af3e
00000030: 71df 6f3e b728 96be 7477 9ebf 5b71 c63f
00000040: f1df f93d 76dd 51be 1966 bcbe 8fcb b43d
00000050: 777a e6bd 0c5e 1e40 cc57 dd3e 283b 8cbe

796 f4 [24, 1, 3, 3]
0.08909697 1.3772289 0.57531375 -0.8223192 -0.89645344 -5.1525846 -0.14256078 2.2417612
2.2122827 -0.16279647 -0.40474018 -0.11271869 -0.35917068 -0.8825336 -0.58256865 0.022248967
-0.35192004 -0.2747414 -0.027517129 0.22263515 0.40533754 0.4575893 0.9319619 0.6913145
0.23648977 0.876807 1.0555722 0.17874783 0.39972103 0.43438306 0.4233651 0.8711786
0.83054775 0.3022277 0.8986917 0.7109357 -0.27398705 2.1449976 -1.2206835 -0.9256082
2.8895147 -2.468379 -0.6574879 2.0304053 -1.609745 0.7235877 -1.3679011 1.3089877
0.88584363 -3.5809884 0.8124723 0.8402437 -0.98872054 1.3666018 -0.06613016 -0.22123335
-0.20445845 -0.15618443 -0.5651494 -0.5576519 -0.15415089 -0.37345225 -0.67125106 -0.13165008
-0.20517597 -0.13216428 -0.24388354 -0.5163026 -0.41393805 -0.055716805 -0.38926205 -0.4992312
0.06541445 -0.09827846 -0.1510301 -0.2537754 -0.73376185 -0.6495046 -0.4566176 -0.9595291
-0.50947595 0.030411312 0.3954965 0.18296477 0.2140711 0.7642589 0.6107031 0.062829375
0.45621416 0.32890207 -0.068432964 -0.28727758 -0.30713928 -0.2063914 -0.5042084 -0.58312476
-0.14872603 -0.24800949 -0.3220219 -0.006778782 0.76894087 0.8114413 0.18122229 1.6404936
1.8442775 0.31162274 1.0630667 0.7794943 0.461295 1.2429172 -0.28472227 0.8221231
1.19351 -0.63558334 -0.14110804 0.10305525 -1.2695208 0.048044734 -0.19877206 -0.34460405
-0.30111414 -1.1024066 -1.3947463 -0.18668503 -1.0753598 -1.5561756 0.0033378853 -0.16615184
-0.23112622 -0.025402008 -0.63831943 -0.880968 -0.08214619 -0.6857068 -0.7736768 0.49470878
0.66832983 1.8568883 -0.27780274 -3.9555197 -3.7970905 0.6753385 1.6589627 2.7870235
0.08161955 0.238 0.12792511 0.18132684 0.472096 0.46489775 0.16695903 0.41016918
0.43443337 -0.15704452 -0.34173155 -0.41378993 -0.40082306 -1.0224131 -0.8158396 -0.31695876
-0.7774722 -1.0002959 0.015655 0.1695549 -0.29529366 0.005180177 -0.72162026 -1.918923
0.32752183 -2.6148803 -3.6364892 -0.17240925 -0.40803108 -0.6144029 -0.2870672 -1.2577654
-1.2868607 -0.022766817 -1.0457684 -1.2681849 -0.091250144 -0.21807735 -0.19228208 -0.18245515
-0.5820006 -0.60506094 -0.12382821 -0.49924654 -0.49221122 -0.081224136 -0.11150018 -0.12543327
-0.17371292 -0.5100778 -0.58849865 -0.08233925 -0.56038505 -0.79480034 -0.6462815 -2.6821728
-1.9930211 -0.1069166 -0.66100603 -0.41071248 0.7784993 3.2898376 2.55555 -0.34461135
-0.469192 -0.5053847 -0.65043277 1.2824013 1.7565013 0.09002647 2.4430225 3.5120456
00000000: 7978 b63d 0949 b03f c347 133f 8383 52bf
00000010: f97d 65bf f9e1 a4c0 74fb 11be 0479 0f40
00000020: 0a96 0d40 1eb4 26be 1b3a cfbe 0ed9 e6bd
00000030: 38e5 b7be b9ed 61bf 3823 15bf 7743 b63c
00000040: dd2e b4be e8aa 8cbe 9a6b e1bc 78fa 633e
00000050: 6788 cf3e 2549 ea3e 0e95 6e3f fdf9 303f
00000060: 602a 723e 6c76 603f fd1c 873f ac09 373e
00000070: 3ca8 cc3e 7567 de3e 4fc3 d83e 9005 5f3f
00000080: c79e 543f 97bd 9a3e a910 663f e2ff 353f
00000090: 0848 8cbe a447 0940 5b3f 9cbf a9f4 6cbf
000000a0: cfed 3840 ecf9 1dc0 2151 28bf 29f2 0140
000000b0: 200c cebf 0b3d 393f 6217 afbf e98c a73f
000000c0: a6c6 623f ea2e 65c0 2ffe 4f3f 361a 573f
000000d0: ca1c 7dbf cfec ae3f 406f 87bd ff8a 62be
000000e0: 8e5d 51be d0ee 1fbe a2ad 10bf 46c2 0ebf
000000f0: bbd9 1dbe 2235 bfbe 1cd7 2bbf 47cf 06be
00000100: a619 52be 1356 07be 9bbc 79be 682c 04bf
00000110: b0ef d3be 4e37 64bd 5b4d c7be 3b9b ffbe
00000120: 03f8 853d 3846 c9bd a2a7 1abe d9ee 81be
00000130: d1d7 3bbf ef45 26bf c8c9 e9be b3a3 75bf
00000140: 046d 02bf 2521 f93c 847e ca3e 1e5b 3b3e
00000150: 7435 5b3e 79a6 433f 0a57 1c3f b0ac 803d
00000160: e794 e93e da65 a83e 9526 8cbd 0c16 93be
00000170: 5c41 9dbe 4458 53be cd13 01bf aa47 15bf
00000180: a34b 18be 33f6 7dbe 0ee0 a4be 8b20 debb
00000190: 4fd9 443f 9eba 4f3f 5692 393e b2fb d13f
000001a0: 4911 ec3f 048d 9f3e 9212 883f f08c 473f
000001b0: dc2e ec3e e917 9f3f 1ec7 91be a976 523f
000001c0: f0c4 983f 97b5 22bf a07e 10be a20e d33d
000001d0: a87f a2bf 8eca 443d e78a 4bbe f16f b0be
000001e0: a22b 9abe a91b 8dbf 0c87 b2bf 5c2a 3fbe
000001f0: 64a5 89bf c330 c7bf 6cc0 5a3b b523 2abe
00000200: 5aac 6cbe df17 d0bc e768 23bf 1e87 61bf
00000210: 433c a8bd 7b8a 2fbf af0f 46bf 784a fd3e
00000220: aa17 2b3f 84ae ed3f 293c 8ebe 3c27 7dc0
00000230: 8803 73c0 fce2 2c3f e458 d43f 985e 3240
00000240: 2728 a73d 46b6 733e cdfe 023e bead 393e
00000250: 91b6 f13e 1407 ee3e 4ff7 2a3e b201 d23e
00000260: 0d6e de3e 47d0 20be 70f7 aebe 46dc d3be
00000270: ae38 cdbe 6fde 82bf ddda 50bf 6b48 a2be
00000280: 6b08 47bf b209 80bf ea3e 803c cd9f 2d3e
00000290: bb30 97be 79be a93b 1bbc 38bf 459f f5bf
000002a0: f1b0 a73e 335a 27c0 3dbc 68c0 0d8c 30be
000002b0: 73e9 d0be 8249 1dbf 79fa 92be 75fe a0bf
000002c0: dab7 a4bf 7a81 babc bddb 85bf e253 a2bf
000002d0: 5be1 babd ab4f 5fbe 98e5 44be 86d5 3abe
000002e0: fefd 14bf 46e5 1abf a599 fdbd 3e9d ffbe
000002f0: 1c03 fcbe d758 a6bd 355a e4bd 9471 00be
00000300: cde1 31be 7594 02bf d9a7 16bf 7ba1 a8bd
00000310: 6575 0fbf 0978 4bbf b472 25bf b8a8 2bc0
00000320: 511b ffbf 17f7 dabd b137 29bf e848 d2be
00000330: bb4b 473f b38c 5240 228e 2340 e670 b0be
00000340: ef39 f0be e460 01bf c382 26bf ba25 a43f
00000350: 09d5 e03f cc5f b83d 7b5a 1c40 5bc5 6040

797 f4 [24]
0.054393634 0.3446407 -0.23992103 -0.15695791 0.016772544 0.017955385 0.32105938 0.49234843
0.23600121 -0.44737375 0.15406668 -0.1400112 -0.33536845 0.16093872 0.25952312 -0.015280526
-0.4701556 0.1703583 0.6312733 0.22251454 0.34985667 0.43057367 -0.06629894 -0.15109919
00000000: dccb 5e3d bf74 b03e dcad 75be 93b9 20be
00000010: 9366 893c 2c17 933c e561 a43e 1815 fc3e
00000020: 4daa 713e 2c0e e5be a8c3 1d3e 195f 0fbe
00000030: 6ab5 abbe 1fcd 243e 37e0 843e 2c5b 7abc
00000040: 3cb8 f0be 6872 2e3e 219b 213f dada 633e
00000050: 6a20 b33e 2774 dc3e bdc7 87bd bfb9 1abe

799 f4 [24, 24, 1, 1]
0.023198485 -0.02512237 -0.0061521237 0.012333296 -0.0022978664 -0.020359742 -0.038185097 -0.030983666
0.010433223 0.09958255 0.13269718 -0.025868822 -0.01073603 -0.072924525 -0.01858564 -0.009340412
0.03325932 -0.054472983 0.1826199 -0.10437708 -0.017920448 -0.04303485 0.043905064 0.061010223
-0.03969826 -0.0643438 -0.081774056 -0.018139694 0.021136114 -0.011967175 0.04364721 -0.005545641
0.08567545 -0.010917015 0.19096062 0.089258045 0.034644913 0.038048863 -0.049922284 -0.0324691
-0.06269573 0.0017453884 -0.09382724 0.011835577 0.0925701 0.032544468 -0.51891756 -0.008912426
-0.10273782 0.01827578 0.22218983 0.02011709 0.23558365 -0.37333968 0.12892509 -0.003528028
-0.21337146 -0.13211988 0.1374047 -0.07501148 0.046168845 0.07814676 -0.0033308794 -0.086477354
-0.0024934344 0.024921821 -0.08402777 -0.07901917 0.11224181 0.07602915 0.09056621 0.055635165
0.07239179 0.06535918 0.13515787 0.009378856 -0.074473724 -0.120113045 -0.17805663 0.09645819
-0.23433013 0.2338581 0.18435387 0.054163415 -0.036921874 -0.19760849 -0.16657445 0.019897467
-0.041331988 0.06859016 0.20241389 -0.17354092 -0.34309474 0.23110881 0.14609379 0.15194829
0.0022051153 0.04822053 0.020324267 0.28561437 -0.014942526 0.015349478 0.29658803 0.35061774
-0.0035053843 0.060965884 -0.0049501625 0.003681201 -0.1953323 -0.064989395 -0.038135137 -0.0008870761
0.28962716 0.3817507 -0.014120524 0.032750715 -0.2966998 0.018054448 -0.0106668705 0.009697197
-0.005975496 0.26571965 -0.077565774 -0.05261852 0.02226654 0.059941377 -0.08628474 0.18204266
0.045369342 0.040750932 0.2614122 -0.12887272 0.024216652 -0.006168144 -0.05461649 0.06423031
-0.15053487 0.08852616 -0.02720588 -0.013042855 -0.10535965 -0.1107656 0.11230272 -0.071331225
0.44304982 0.13810858 0.14745948 -0.041922927 -0.17640209 0.11428334 0.024375446 0.10665412
-0.13103974 0.057407368 0.07828127 0.06536656 0.0049763042 -0.068874694 -0.04836154 -0.2010429
-0.038940303 0.075829074 0.07413544 -0.17611876 0.042566266 0.07042926 0.06686962 -0.022071723
-0.39804536 0.094398916 0.028416514 -0.02196643 0.08960934 0.13035922 0.0010660093 0.038991105
-0.060090024 0.03064925 -0.15550268 0.24250771 0.017122598 0.09165817 -0.0450003 0.4957822
-0.09104574 0.02468925 0.059338946 -0.078881696 -0.047103826 0.06291884 -0.009746415 -0.023592016
-0.006454841 -0.03441276 0.0052255313 0.36767724 -0.020697832 0.0017728285 0.28074473 0.45213804
0.010241262 0.014041938 0.015849141 -0.026248781 0.057661954 -0.057781413 -0.021383895 0.012639065
0.40361103 0.3992101 0.00780362 0.03607274 -0.23583147 -0.0008269995 0.0116790645 0.0008323707
0.06902873 0.1440083 0.038563356 0.06153834 -0.009031486 0.01923365 0.08810692 -0.057236634
-0.03558884 0.15115233 -0.0705013 -0.04447011 0.013765759 -0.03451019 -0.16705318 -0.021317597
0.094784044 -0.04379076 -0.0039797067 0.011571026 0.11031282 0.14811459 -0.03559705 -0.14178386
-0.05158366 -0.07122707 0.010100702 0.021694053 0.0115324715 -0.01818509 -0.03638535 0.024900343
-0.024510417 0.05189489 0.023010267 -0.004532619 0.021824816 -0.05478249 -0.10041437 0.045236837
00000000: c00a be3c 6ecd cdbc c197 c9bb 9811 4a3c
00000010: cd97 16bb 79c9 a6bc fa67 1cbd 75d1 fdbc
00000020: 1cf0 2a3c f0f1 cb3d c5e1 073e daea d3bc
00000030: 2ce6 2fbc 7459 95bd e940 98bc 8708 19bc
00000040: ed3a 083d 101f 5fbd b600 3b3e a7c3 d5bd
00000050: e7cd 92bc 5045 30bd ccd5 333d dbe5 793d
00000060: a59a 22bd afc6 83bd 2879 a7bd b299 94bc
00000070: a525 ad3c f811 44bc 6bc7 323d 35b8 b5bb
00000080: 9c76 af3d 48dd 32bc 2e8b 433e eccc b63d
00000090: d3e7 0d3d 20d9 1b3d 4f7b 4cbd 52fe 04bd
000000a0: 9e66 80bd 84c5 e43a 7f28 c0bd 02ea 413c
000000b0: 6595 bd3d 594d 053d c8d7 04bf 6d05 12bc
000000c0: 3568 d2bd 17b7 953c bb85 633e 98cc a43c
000000d0: d73c 713e 6126 bfbe f004 043e 7d36 67bb
000000e0: 0c7e 5abe 6f4a 07be d1b3 0c3e 9e9f 99bd
000000f0: 8b1b 3d3d 690b a03d e24a 5abb 0a1b b1bd
00000100: e368 23bb d928 cc3c c016 acbd cdd4 a1bd
00000110: 09df e53d 2cb5 9b3d c77a b93d b3e1 633d
00000120: 2642 943d 09db 853d d366 0a3e c6a9 193c
00000130: ae85 98bd d4fd f5bd 7a54 36be df8b c53d
00000140: 3df4 6fbe 7f78 6f3e 43c7 3c3e 75da 5d3d
00000150: 643b 17bd e159 4abe 7e92 2abe 0300 a33c
00000160: bb4b 29bd ff78 8c3d 9645 4f3e b6b4 31be
00000170: 1daa afbe caa7 6c3e 9c99 153e 5598 1b3e
00000180: b283 103b e482 453d 147f a63c 0c3c 923e
00000190: 7fd1 74bc 617c 7b3c 63da 973e 2b84 b33e
000001a0: 97ba 65bb 5db7 793d f934 a2bb 4e40 713b
000001b0: 3105 48be 2919 85bd 9733 1cbd ab8a 68ba
000001c0: 034a 943e d474 c33e c559 67bc 9d25 063d
000001d0: 09e9 97be ece6 933c 19c4 2ebc fee0 1e3c
000001e0: 18ce c3bb 680c 883e ceda 9ebd 8486 57bd
000001f0: 5268 b63c 1785 753d 0eb6 b0bd 6469 3a3e
00000200: 34d5 393d 73ea 263d d2d7 853e 36f7 03be
00000210: 0062 c63c 241e cabb 8ab5 5fbd 2e8b 833d
00000220: d025 1abe 344d b53d dede debc b3b1 55bc
00000230: cdc6 d7bd 13d9 e2bd f8fe e53d 1b16 92bd
00000240: 6dd7 e23e 566c 0d3e 9eff 163e 60b7 2bbd
00000250: c0a2 34be 620d ea3d 04af c73c 7a6d da3d
00000260: 482f 06be fd23 6b3d ee51 a03d e7de 853d
00000270: 4410 a33b 2d0e 8dbd c016 46bd 31de 4dbe
00000280: de7f 1fbd 464c 9b3d 52d4 973d 7a58 34be
00000290: f759 2e3d 373d 903d f0f2 883d c2cf b4bc
000002a0: 9acc cbbe 3854 c13d c0c9 e83c f1f2 b3bc
000002b0: 1a85 b73d e37c 053e 56b9 8b3a 23b5 1f3d
000002c0: f520 76bd 2314 fb3c 183c 1fbe f153 783e
000002d0: b144 8c3c 47b7 bb3d 3c52 38bd 2ad7 fd3e
000002e0: 3076 babd 1c41 ca3c 650d 733d ba8c a1bd
000002f0: f1ef 40bd 98db 803d 6daf 1fbc 0b44 c1bc
00000300: 2183 d3bb 65f4 0cbd ef3a ab3b 3140 bc3e
00000310: 808e a9bc 415e e83a c6bd 8f3e a37e e73e
00000320: f7ca 273c 2810 663c 0fd6 813c af07 d7bc
00000330: f12e 6c3d 34ac 6cbd 472d afbc 1514 4f3c
00000340: 1ba6 ce3e 4465 cc3e 82b5 ff3b 02c1 133d
00000350: ce7d 71be ffca 58ba 8c59 3f3c 7433 5a3a
00000360: ef5e 8d3d e976 133e 9cf4 1d3d a00f 7c3d
00000370: ccf8 13bc e38f 9d3c 6771 b43d f670 6abd
00000380: 9ac5 11bd adc7 1a3e fc62 90bd 4a26 36bd
00000390: c789 613c 8f5a 0dbd fd0f 2bbe 3ea2 aebc
000003a0: 231e c23d f15d 33bd 3368 82bb 6794 3d3c
000003b0: b0eb e13d 5aab 173e 36ce 11bd ca2f 11be
000003c0: 6349 53bd 80df 91bd 6a7d 253c bab7 b13c
000003d0: b1f2 3c3c e6f8 94bc ce08 15bd cefb cb3c
000003e0: 12ca c8bc bc8f 543d 0780 bc3c 5d86 94bb
000003f0: f5c9 b23c 9b63 60bd 0da6 cdbd 434a 393d

800 f4 [24]
0.43420973 0.09252861 0.21806668 -0.10183762 0.55372196 0.35540316 0.23276533 0.04494056
-0.008452684 0.35173258 0.6808474 -0.01431556 0.46445268 0.09294414 0.416711 0.19079521
0.22759081 -0.22789825 0.22461517 0.29283184 0.558326 0.0968373 0.041607745 0.0032794809
00000000: bd50 de3e a47f bd3d df4c 5f3e 3e90 d0bd
00000010: b9c0 0d3f 67f7 b53e 095a 6e3e 9813 383d
00000020: 207d 0abc 4b16 b43e 044c 2e3f d08b 6abc
00000030: becc ed3e 7f59 be3d 255b d53e d25f 433e
00000040: 910d 693e 295e 69be 8501 663e 0eee 953e
00000050: 74ee 0e3f a252 c63d e26c 2a3d 8fec 563b
