yolo-fastestv2-opencv.onnx (onnx, 979421 bytes, 153 tensors)

output_reg_layers.weight f4 [12, 72, 1, 1]
000000 04 71 ba 3b a7 81 ee bd 0a 2a 3d 3e 41 27 5a 3c
       0.005689742 -0.11645823 0.18473068 0.013315023
000010 c5 61 81 3c 0a 88 a7 3d 39 bf 7f bd 0b b1 29 3d
       0.01579369 0.08180244 -0.062438224 0.041428607
000020 21 74 87 3d cd b7 b1 bd e9 98 b4 bd 73 4c b4 3d
       0.06613947 -0.08677635 -0.08818228 0.08803644
000030 02 96 43 be 8e 12 7c bd c5 cc c5 bb f5 3b d7 bd
       -0.19100192 -0.061541133 -0.0060363733 -0.10509483
000040 0f b9 75 bd b1 80 fe 3b 8d 9c 00 3e 01 b9 01 bd
       -0.05999094 0.007766806 0.1255972 -0.031670574
000050 05 b5 59 be d4 e4 46 3d 5a 13 6c bd 4e bb 06 be
       -0.2126046 0.04855807 -0.057635643 -0.13157389
000060 86 ac 21 bd 15 ff 59 3d ad e6 ef 3b 3c 80 a6 3b
       -0.03947117 0.05322178 0.0073212 0.0050812047
000070 ae 8d 69 3d 2d 07 07 3e 01 34 41 3d 11 90 d6 3d
       0.057019882 0.13186331 0.047168735 0.10476697
000080 49 23 cb 3d cf b6 2f 3e ef d7 3d 3d e7 f1 a4 3c
       0.099188395 0.1715958 0.04634851 0.02013488
000090 84 d1 fc 3d 40 a8 8b 3c 20 44 7a 3c 42 75 80 3d
       0.123446494 0.017048001 0.015275031 0.06272365
0000a0 56 5a e5 3d 22 c0 ee bd a1 b3 52 bd 5a 18 c8 bd
       0.11198871 -0.1165774 -0.05144084 -0.0977027
0000b0 60 c5 42 3e b5 ef 61 be b6 38 5c bd fa 8f c9 3d
       0.19020605 -0.22064097 -0.05376502 0.098419145
0000c0 95 16 e8 3d 21 9f 0d 3e 2e e5 07 3e 3e b8 8b 3d
       0.11332432 0.13830234 0.13271019 0.06822251
0000d0 65 d4 7f 3d f7 89 4b bd 26 a8 19 3e 1b 6d 10 3e
       0.062458415 -0.04969212 0.1500555 0.1410412
0000e0 3f 4f 55 3d 76 11 de 3d 4b dd 24 3e 46 1c 86 bd
       0.052077528 0.10843174 0.16100042 -0.065483615
0000f0 31 29 f0 bc 3e e0 f2 bb 9b 4b b0 bd e2 dd d6 3c
       -0.029316517 -0.0074119857 -0.086081706 0.026228849
000100 1f e0 7e bd 49 6c 01 3e 1d 99 0c 3e c2 3c 5a be
       -0.062225457 0.12638964 0.13730283 -0.2131224
000110 10 34 94 3d 35 de fb 3d 9e 4b 1a 3d 16 d3 3a bd
       0.07236493 0.12298242 0.03766977 -0.045611463
000120 d8 5d df 3d 76 57 23 3d 4e 39 b5 bd 1f 28 21 be
       0.10906571 0.03987833 -0.088488206 -0.15737961
000130 38 ba 87 3d 49 19 dd 3d 4e e5 b3 bd 0a 52 77 3d
       0.06627315 0.107958384 -0.08783971 0.060380973
000140 5b 82 44 3e 3f 72 4c be 97 1b 24 3e e4 4e 06 3d
       0.19190352 -0.19965456 0.1602615 0.03279008
000150 85 94 7a 3b c1 69 ef 3d 94 fe 03 be a2 ae 9e bb
       0.0038235497 0.11690093 -0.12890083 -0.004842595
000160 2d 3a 72 3d 4d b8 17 bd d4 77 b3 bd 0b 42 9c 3d
       0.059137512 -0.037040997 -0.0876309 0.07629784
000170 ab 6b 5b 3a cb 83 43 3e 2e 77 90 3d 70 29 15 bd
       0.0008370231 0.19093244 0.07053982 -0.03641647
000180 82 79 21 3a bf 0f b8 bd 5a a8 cf 3d cf 13 30 3e
       0.00061597687 -0.08987378 0.101395324 0.17195056
000190 bc ad 2f bd c3 b7 09 3e 7b ab 4d be 9e a6 2b 3d
       -0.042890295 0.13449006 -0.20084946 0.041906945
0001a0 23 6c e3 3b fe 57 4b 3e 23 27 ee bd 1f 42 8d bd
       0.006940381 0.19857785 -0.116285585 -0.06897377
0001b0 95 56 d9 3b 48 d9 8a 3c b3 9d 24 3e 2e 87 a2 bc
       0.006632636 0.01694931 0.16075782 -0.01983985
0001c0 c9 8d c7 3d 67 0f 87 bd 10 1d 24 bd 32 ba ef bd
       0.0974384 -0.06594735 -0.04006678 -0.11705436
0001d0 79 65 ec ba f9 70 88 3d 41 71 3f 3c 6a 81 bf bd
       -0.0018035612 0.06662173 0.011684717 -0.09350856
0001e0 9e e0 99 bd ab 44 db bb d5 3f 05 be 89 bb 32 be
       -0.075135455 -0.0066915355 -0.13012631 -0.17454351
0001f0 ef 25 87 bd 9d ac 03 3c 99 13 cf bd 57 8a 02 3e
       -0.06599032 0.00803676 -0.1011116 0.12748085
000200 99 64 a5 bc 6b 55 70 bc c5 24 c2 bd 12 3d 2c be
       -0.02018957 -0.014668803 -0.094796695 -0.16820171
000210 70 9d 84 3d e3 39 b6 3d 90 e2 15 3e 12 d2 06 be
       0.06475341 0.0889776 0.14637208 -0.13166073
000220 66 67 6f bd 7b 6d 09 3e 22 a0 00 3e 49 52 8a 3d
       -0.058448218 0.1342067 0.12561086 0.06753976
000230 25 61 76 3c 8a 47 86 3d 7b 4c e2 bd d2 3b c8 bd
       0.0150378095 0.06556614 -0.11049744 -0.09777035
000240 1c 62 b7 bd f7 8e bb 3c 55 5a ad 3d 82 5f 03 bb
       -0.0895426 0.02289532 0.08464495 -0.002004594
000250 b4 c7 3e be 62 eb b9 bd ff d9 8d 3d 2a d7 a3 bc
       -0.18630868 -0.09078099 0.06926345 -0.02000006
000260 65 5a f4 bc 9d 85 2f bd 8c 31 ba bc 0d 59 03 3e
       -0.02982826 -0.042852033 -0.022728704 0.12826939
000270 9b a0 ca 3c ee b8 84 bc aa 7e bc 3b d6 f2 3a bc
       0.024734786 -0.016201463 0.005752404 -0.011410436
000280 65 df b6 3d fb 93 6f 3d ac 59 a6 bc f8 9d e3 bb
       0.08929328 0.058490735 -0.02030643 -0.0069463216
000290 51 da a8 3c 57 df cd 3d 29 e5 f1 3c 64 65 a9 bd
       0.020611914 0.10052364 0.029528217 -0.08271292
0002a0 92 33 0d 3d 1c fe f9 3d 37 7f b5 bc 76 78 0e bd
       0.03447301 0.12206671 -0.022155387 -0.03478285
0002b0 6f 63 0c 3d fb ed d4 3c 2c c8 29 bc 47 4b e8 3d
       0.034274515 0.025992384 -0.010362666 0.11342483
0002c0 bc 9f 08 bc 09 66 b5 bd f7 ec b9 bd 5c b5 f0 bc
       -0.008338865 -0.08857352 -0.090784006 -0.029383354
0002d0 19 55 6d bd 78 b1 ae 3c 97 44 4d 3c cf fa 3c 3d
       -0.057942484 0.021324858 0.01252856 0.046137627
0002e0 5b 3f cd 3c 84 0d 46 3c 8c 54 cc bd 13 0a fb 3c
       0.025054624 0.012088183 -0.099770635 0.030644452
0002f0 4e 04 6d 3b 51 33 52 bc a2 e1 ce 3c a4 ba d3 bb
       0.0036165896 -0.012829618 0.025254074 -0.0064614583
000300 08 93 0e bc 17 30 1f be fc d2 01 3a 5f 76 90 bd
       -0.008702047 -0.15545689 0.00049523986 -0.070538275
000310 66 83 b2 bb d1 40 d2 3d 44 82 cf 3a 39 86 bf bc
       -0.005447793 0.10266269 0.0015831669 -0.023379432
000320 06 d4 85 3d 21 72 b9 3d 4e c9 b6 3c 77 5b c2 bd
       0.06534581 0.090549715 0.022312786 -0.09490102
000330 e8 ef e4 3c 78 95 bd bc a9 b7 9d bc db 64 1c 3d
       0.027946427 -0.023142561 -0.019252615 0.03818212
000340 7c bb 70 3e af 17 9e 3d 84 40 5c 3c e8 88 be 3d
       0.2350902 0.07719361 0.013443116 0.093034565
000350 bc 3f d6 bb a5 9c 44 3d 1a e3 2f bc 7b ba 96 bc
       -0.0065383594 0.04800095 -0.010735298 -0.018399468
000360 8c 90 5f bc d0 85 08 bc 49 2f 48 3d 4d 40 36 ba
       -0.0136453025 -0.008332685 0.04887322 -0.00069523306
000370 f2 b5 af bc 4c 47 83 bd 85 21 1d 3d 3b 46 14 bd
       -0.021449063 -0.06410083 0.038362045 -0.03619979
000380 96 69 ad bd 37 9f 31 bd d6 53 49 3d a0 cd 54 3d
       -0.084674045 -0.04336473 0.049152218 0.05195391
000390 11 9e de bb 32 ee 36 bb 29 b6 05 bc ef 6f cd bc
       -0.0067937453 -0.0027912972 -0.008161106 -0.025077788
0003a0 c3 fd b5 bc f1 cd 8d bc fe fe b7 bb c4 33 71 3c
       -0.02221573 -0.017310115 -0.0056151142 0.014721815
0003b0 69 9f 77 bd 77 81 a4 bb 93 0d 50 bd 99 d6 e3 bd
       -0.06045476 -0.005020316 -0.050794195 -0.11124916
0003c0 fd 55 6f 3d 4f b7 b5 bd 51 c2 4a bd 84 ee 9c 3c
       0.058431614 -0.08872854 -0.04950172 0.019156702
0003d0 06 0c 9f bd b6 cb 45 3d cb b6 48 bd c5 b3 7c bd
       -0.07765965 0.048289977 -0.04900245 -0.06169488
0003e0 3d e3 01 3b 40 d4 eb 3d 77 18 28 3d 3b b8 11 bd
       0.0019819282 0.11515093 0.041038956 -0.035576086
0003f0 33 52 23 be ac 78 94 bc da 5f 8e 3b 25 5f 37 3d
       -0.15949325 -0.018123947 0.0043449225 0.04476847

output_reg_layers.bias f4 [12]
000000 8a 90 2a bc af 75 8d bb f1 ab b1 3d ed 01 5c 3e
       -0.010410437 -0.0043170075 0.08675373 0.2148511
000010 47 a2 d7 3b 2b 9a 6c bc 64 3d 76 3d f1 94 9b bd
       0.0065806243 -0.014441053 0.06011714 -0.07596768
000020 e6 34 e0 bb 47 cd 6a 3b b9 34 05 be 6c 35 55 be
       -0.0068422435 0.0035827921 -0.13008393 -0.2082116

output_obj_layers.weight f4 [3, 72, 1, 1]
000000 6a fe 61 bf 7f c4 01 3c 80 ab e8 bd fb 33 11 bd
       -0.8827883 0.0079203835 -0.11360836 -0.035449963
000010 29 d1 19 3c 0c 08 c6 bb a2 a0 df 3e 95 0d 58 bc
       0.009388247 -0.0060434397 0.4367724 -0.013186832
000020 1c 89 49 be d0 f6 1e bc 10 da 37 bc 85 1b e1 bc
       -0.1968121 -0.009702399 -0.011221424 -0.027478943
000030 71 e6 5b be 76 37 86 bf 0d 7b df 3c 4b 1b b0 bb
       -0.21474625 -1.0485675 0.027280355 -0.0053743473
000040 d5 c0 7c 3a 93 01 d9 bd 8c 94 80 3b 52 32 8f 3c
       0.00096417713 -0.105960034 0.003923958 0.01748005
000050 ce 61 21 3c f8 e2 d5 bb 9e 2d 7e 3d ec 56 6c be
       0.009849979 -0.006527301 0.062055223 -0.23080033
000060 e4 77 b1 3d cd 24 e3 bc 0b 1f 47 bc f5 8d bc bc
       0.086654454 -0.027727509 -0.012153397 -0.02301691
000070 49 d1 25 3c e7 e7 01 3a 23 e5 e6 bb 86 e0 7c bd
       0.010120698 0.00049555156 -0.007046358 -0.06173756
000080 ef f2 6f 3a da cc d3 3d 10 cb 6e bb f9 f4 c5 bc
       0.00091533264 0.10341807 -0.0036436953 -0.024164664
000090 f5 0f 7e ba 39 43 2e bc 57 7a 08 3b e0 2c f1 3c
       -0.0009691709 -0.010636144 0.0020824873 0.029440343
0000a0 8c 85 25 3c 63 52 0a 3f ca 35 96 3c d1 01 8c be
       0.010102641 0.5403196 0.018336195 -0.27345136
0000b0 dc ac 4e 3c 6b a0 8f bc 33 e9 4a bd 07 87 33 3c
       0.012614455 -0.017532548 -0.049538802 0.010957486
0000c0 09 7c 05 bd 04 82 91 3d af 83 83 be 41 b2 05 3f
       -0.032588992 0.07104877 -0.25686404 0.5222512
0000d0 1b 7a fe bc 50 7c 80 3b 8e 53 d4 3a c3 5c 93 3a
       -0.031064084 0.003921069 0.0016199218 0.0011242855
0000e0 70 c4 dc be d6 2b ec bc dc 96 93 3d 3a 97 a4 3c
       -0.4311862 -0.028829496 0.072065085 0.020091642
0000f0 e4 08 ed bc 1d d6 39 3d 49 b6 be bc d4 0a 61 bc
       -0.028934903 0.04537021 -0.02328028 -0.013735492
000100 1c bc 06 bc 63 d8 bb 3d 5f 16 83 3f a2 b4 45 bf
       -0.00822356 0.09172132 1.0241202 -0.7722875
000110 ec 4b 86 ba 51 9a ae be 33 82 a6 bd 33 1e 59 3d
       -0.0010246015 -0.3410211 -0.08130302 0.053007316
000120 3d f1 48 bf 05 e9 f6 bc 3b 85 c3 3c b5 05 d5 3d
       -0.784931 -0.03014041 0.02386724 0.10401479
000130 d4 33 88 3b 87 82 d9 bc 2f eb 1e 3f cf 96 d6 3b
       0.004156569 -0.026551498 0.6207761 0.0065487395
000140 85 60 25 3e ca 2b a0 3c 4f ce ac bc 29 d7 41 3d
       0.161501 0.01955213 -0.02109447 0.047324333
000150 29 3f 2c bf 06 ae 50 bf a7 9c b0 3c b0 cb 75 3c
       -0.67283875 -0.8151554 0.021559073 0.015002176
000160 4a 6f 2f bd c2 09 93 3d 8d bd e0 bc f9 12 1b bc
       -0.042830743 0.071795955 -0.027434135 -0.009464973
000170 c2 0e d0 bb 61 87 b5 3b 43 d0 e1 3c e5 b0 39 3d
       -0.0063494155 0.00553982 0.027565127 0.045334715
000180 a6 26 3a 3d bf 78 85 3c b4 6d 13 3b c5 98 cc 3b
       0.045447014 0.016292928 0.0022495808 0.0062437975
000190 53 bc 19 bd bb 73 89 bc 81 9d a4 bb f4 a4 30 3d
       -0.037533116 -0.016778817 -0.0050236587 0.04312606
0001a0 ca 30 bb bc 41 4d 44 bd c4 f4 3a 3b 93 56 0d 3d
       -0.022850413 -0.047925238 0.002852724 0.03450639
0001b0 7a 51 51 3c 62 b5 29 3b 66 0d cd 3c 39 2a d8 3e
       0.012775773 0.0025895466 0.025030803 0.42219713
0001c0 b2 7b 2f bb 2a 46 1a 3e 6f 65 b5 bc 2d 44 0a bd
       -0.002677661 0.15065828 -0.022143094 -0.033756424
0001d0 dd 09 ad 3b f4 8b 15 3d 15 87 0e 3d c1 8f ed be
       0.005280717 0.036510423 0.034796793 -0.46398738
0001e0 08 f2 ae 3c b1 e3 50 bc f0 30 3c 3e 78 9c b1 3e
       0.021355644 -0.012749598 0.18378043 0.3468969
0001f0 f4 f2 81 3e 85 03 57 3c f4 d4 81 bb e3 14 84 bd
       0.2538067 0.013123398 -0.0039621536 -0.06449296
000200 96 f9 aa be 9a ef 25 3d 7c 7c 3d 3f 10 ee 93 3c
       -0.33393544 0.040511705 0.74018073 0.018057853
000210 7d 06 22 3d df 81 8b 3d 71 48 c3 bc e4 90 b7 bd
       0.03955697 0.0681188 -0.023838254 -0.089631826
000220 3e 36 82 3c 4b 2d 60 3e 07 90 94 3f f6 f1 50 be
       0.015895005 0.21892278 1.1606454 -0.20404801
000230 de 9c 18 3c 0f 61 89 be e5 38 4b bd d3 1c 51 bc
       0.009314744 -0.26831862 -0.049614806 -0.01276322
000240 5e 17 59 be 46 3e 4d 3d c8 31 f5 bd d6 14 96 bd
       -0.2120032 0.050108217 -0.11972386 -0.07328193
000250 4f 35 3d bc 74 73 dd 3d d8 7e 0a 3f 07 b6 e7 3c
       -0.011548354 0.108130366 0.540998 0.02828504
000260 bc 6b 4e be 62 7a e4 bb 91 a9 36 3c 82 c4 d7 bd
       -0.20158285 -0.006972597 0.011148826 -0.10535528
000270 a8 99 17 bf f0 0c 85 bf 29 3b e8 bc 53 3d 83 bb
       -0.59218836 -1.0394573 -0.028348522 -0.004005113
000280 a1 61 39 3d c1 c0 ad bb 84 68 15 3d 3a 08 23 bd
       0.04525912 -0.005302519 0.036476627 -0.039802767
000290 3d 9e 23 bc fa 0d fc 3a 60 bd 65 3c 7b cd d5 be
       -0.009986457 0.001923024 0.014022201 -0.41758332
0002a0 2d fc e9 3e dc 33 22 3e 37 bd 0f be b8 01 aa 3c
       0.45700207 0.15840095 -0.14037023 0.020752773
0002b0 2b ca 2a 3c ec ab f6 3b f9 9f 07 3c 76 62 04 bd
       0.010424177 0.007527819 0.008277887 -0.032320462
0002c0 57 b9 ce bb e7 82 c5 3c 42 c0 9c 3a 91 93 86 bc
       -0.0063087153 0.02411027 0.0011959153 -0.016427787
0002d0 07 b7 5c 3b 6a dd 20 bd be e0 09 bf 1e 66 e0 3e
       0.0033678429 -0.039273657 -0.53858554 0.4382791
0002e0 cf 9d 49 bd f1 36 ac 3e 72 21 08 3c b5 d1 f2 3d
       -0.049222764 0.33635667 0.008308755 0.11856405
0002f0 35 9c 61 3c 3d eb d1 bc 64 5e 78 bd 55 b0 8f be
       0.013770153 -0.025624866 -0.060636893 -0.28064218
000300 c4 d0 0c bd 6e b7 42 be 13 dd 70 3e ef 90 07 3e
       -0.034378782 -0.19015285 0.23521833 0.13238882
000310 a5 3f 25 3e ac 4e 72 3c de e8 a5 3c ee 74 9e 3d
       0.1613756 0.014789265 0.020252641 0.07737146
000320 37 d0 d4 be 18 9d 38 bd 96 31 3f 3f 3c 12 de bc
       -0.41565105 -0.04507169 0.7468504 -0.027108304
000330 36 0c be bc a5 02 89 3d dc ba d0 bd 7f 84 ec 3d
       -0.023199182 0.066899575 -0.101918906 0.11548709
000340 ca 19 28 3b f0 16 1f 3f 70 11 84 3f 2d c2 9a bd
       0.0025650137 0.62144375 1.0317822 -0.07556567
000350 ef bb 1b bc e4 a7 9b 3e 47 ce 3b bd 89 b5 07 3d
       -0.009505256 0.30401528 -0.04585102 0.03313211

output_obj_layers.bias f4 [3]
000000 86 13 ef bf 6c e3 ef bf 8b 5c 04 c0
       -1.8677833 -1.8741279 -2.0681484

output_cls_layers.weight f4 [80, 72, 1, 1]
000000 ff b2 8b 3d b1 6b b3 3d 73 32 5b 3e 68 a4 cb 3d
       0.0682125 0.08760775 0.21405964 0.099434674
000010 7f b7 dd bc a8 d5 80 3d 2f 13 fd be f4 b0 30 3e
       -0.027065037 0.06290752 -0.49428698 0.17255002
000020 ce 9d 98 bd 8c 2a 8a 3e dc 84 92 bd c5 ea 77 be
       -0.07451974 0.26985586 -0.07154247 -0.24210651
000030 a4 08 2a bd c7 03 a0 3d bd 41 e3 bd c9 ed 55 3d
       -0.041512147 0.078132205 -0.11096523 0.052228723
000040 7b 42 4c bb 2b f5 00 3f 51 9b 94 3c 70 e2 83 3d
       -0.0031167555 0.50374097 0.018140467 0.06439674
000050 49 f8 13 3d 7e f4 97 3b b1 ec af 3e 8d 64 92 3e
       0.036125455 0.0046373 0.3436027 0.2859234
000060 cd 4d 9d 3e c6 af 21 be 04 7e 05 be 65 10 95 3d
       0.3072342 -0.15789708 -0.13036352 0.07278518
000070 e1 a6 5b be 5d fb 88 3d 40 f9 3d be 06 f4 a4 3d
       -0.21450378 0.06688569 -0.18552113 0.08054356
000080 ab 58 12 be d0 52 98 3e ef 04 83 3d 33 83 35 3d
       -0.14291637 0.2975068 0.063974254 0.044314574
000090 24 06 af bc bc ea 73 be 51 dc f9 3b 28 e1 d4 bc
       -0.021365233 -0.23820013 0.0076251407 -0.02598627
0000a0 0e 65 f3 3d f5 ed ce be 58 bb 33 bd 1c f4 74 3e
       0.11884509 -0.40415922 -0.043879837 0.23921245
0000b0 28 50 dd bd 67 1e 2b bd 87 4a ec bd 2e ca 8f be
       -0.10806304 -0.04177704 -0.115376525 -0.28083938
0000c0 a8 0a 3f be 93 71 17 3e cc 1d 55 be 7e 30 3c be
       -0.18656409 0.14789419 -0.20812148 -0.18377873
0000d0 f0 94 30 3c dc 88 17 be 66 6a 42 3e 60 db b3 bc
       0.010777697 -0.14798301 0.189859 -0.021955192
0000e0 15 92 1f 3e 50 03 43 bd ef 68 25 be 3d 42 84 bc
       0.1558307 -0.04761058 -0.1615331 -0.016144866
0000f0 86 97 d1 bd 18 4d 88 be 61 50 36 3e 1d 34 0b bf
       -0.10233979 -0.26621318 0.178041 -0.54376394
000100 2e 71 31 be 4e 82 c1 be a0 fe af bd 1c 0b cb 3c
       -0.17328331 -0.37794727 -0.08593488 0.02478557
000110 7e c8 72 bd dc 31 13 be 39 c8 ee bc d5 7c 53 3e
       -0.059273235 -0.14374489 -0.029148208 0.20653088
000120 3a b6 30 bd d1 aa 87 3e 36 0b 30 3d ce 44 09 3e
       -0.043142535 0.2649751 0.04297944 0.13405153
000130 04 34 f8 bd 01 36 17 bd ad c7 a7 3d 40 96 9b 3d
       -0.12119296 -0.036916737 0.08192382 0.07597017
000140 a2 d7 c8 bd de 4d 87 3e 4c f2 36 bd 69 4c 82 bd
       -0.09806754 0.26426595 -0.044664666 -0.0636223
000150 b1 7b 36 3c d8 09 6d bd 2c 6d 88 bd 78 05 87 be
       0.011137889 -0.057870716 -0.06661448 -0.2637136
000160 48 b8 b8 3d 5c 91 19 bd 26 2e 87 be 5b 56 a7 bc
       0.09019524 -0.03749214 -0.26402396 -0.02042692
000170 c6 6e f7 bd 38 03 a2 3e d3 22 5f bd a4 86 ec bc
       -0.12081675 0.3164308 -0.05447657 -0.028872795
000180 8d bc 76 3c 17 15 08 3d 5e 11 31 be 91 21 7d 3d
       0.015059602 0.033223238 -0.17291781 0.06179959
000190 31 9b 56 3d 12 c4 7a bc db d8 20 3e fd 89 c8 3d
       0.052394096 -0.015305536 0.15707724 0.09791944
0001a0 8f 63 e3 bc fd e3 7c 3b 57 40 c0 3c 45 cf 12 3e
       -0.027757434 0.003858804 0.02346818 0.1433688
0001b0 1e e9 e3 3d 08 43 ee bc bf 94 95 3d 26 84 20 be
       0.11128448 -0.029084697 0.07303762 -0.1567541
0001c0 58 ed 3f bd ed 3e d0 bd fd 81 c7 bd ee 38 f6 bd
       -0.046857208 -0.10168252 -0.0974159 -0.12022577
0001d0 f8 3f 31 be c9 e4 18 be 83 6e 2a 3d 57 0d 98 3d
       -0.17309558 -0.14931025 0.0416093 0.074244194
0001e0 18 50 31 bb 10 12 13 3e 50 c0 f1 bd aa a9 04 3e
       -0.0027055796 0.14362359 -0.11804259 0.12955347
0001f0 e6 56 08 3e 93 0b e1 3d 0e 00 53 3d 21 24 48 be
       0.13314399 0.10988536 0.051513724 -0.19545032
000200 c4 66 30 3e d6 2c 77 3d 0e 13 68 3d 35 f4 d7 bd
       0.17226702 0.060345493 0.056658797 -0.10544626
000210 46 4f 14 3e f1 c2 e7 bd 99 1a 08 3e 2e 5b 78 3e
       0.14483365 -0.11316479 0.13291396 0.24253532
000220 a3 31 2c b9 2f 41 23 be aa 83 52 bb 61 d6 9d bd
       -0.0001642169 -0.15942834 -0.0032121935 -0.07706905
000230 75 71 b5 bd b8 45 96 3d ed 34 92 bc cc 90 60 3e
       -0.08859531 0.073375165 -0.017847503 0.21930236
000240 da e5 67 bc fc 99 54 bd 16 4d 11 3c b5 67 e5 3d
       -0.014153922 -0.051904663 0.008868476 0.11201421
000250 2d 10 64 3e db c9 8b bd 90 0d c9 bd aa 74 63 3e
       0.22271796 -0.0682561 -0.0981704 0.22212473
000260 40 45 cc 3d 2c 16 d3 bd 5b d0 f5 3c a8 da 36 be
       0.09974146 -0.10306963 0.030006578 -0.17856848
000270 78 ab 26 3d 68 b6 03 3e 60 ad 21 be 44 b0 1c be
       0.04069087 0.12862551 -0.15788794 -0.15301615
000280 f1 4a e4 bd 2f d5 81 3c e4 fe 81 bc af ab 05 3e
       -0.111471064 0.015848724 -0.015868612 0.13053773
000290 93 4e df bd 5e a5 02 be 83 40 c0 3d 56 56 7c bc
       -0.10903659 -0.12758395 0.09387305 -0.0154014435
0002a0 3d 49 31 3e 6b 1a 7a bc f3 d8 aa 3b da 2e ba bc
       0.17313094 -0.015265088 0.0052138506 -0.022727419
0002b0 db 0d 81 3c 4d 67 98 3c 42 42 46 3d 7d 8c 13 3e
       0.015753677 0.018603945 0.048403032 0.14409061
0002c0 29 63 f5 3d 08 45 18 3e ab 63 a8 3b d3 fe 58 3e
       0.11981804 0.14870083 0.0051388345 0.21190958
0002d0 f8 0a 00 3e 6b a6 95 be 81 25 0a 3d db 64 4e be
       0.12504184 -0.2922853 0.033727173 -0.20155661
0002e0 d4 96 89 be 4f cf 47 be d2 d0 c4 bd f3 1e 9e bd
       -0.26872885 -0.19512676 -0.09610142 -0.07720747
0002f0 7b 84 c9 bd a3 6a cb bc 20 9d 08 3e bf 6d 16 3e
       -0.09839722 -0.024831122 0.13341188 0.14690302
000300 9c 46 31 bd 8e c0 ca bd 45 06 fc bd 89 df bf bd
       -0.04328023 -0.09900008 -0.12305883 -0.09368808
000310 32 be 2a 3e 98 fe 7c 3e 1a 8c 9b 3e 8e eb 46 be
       0.16674116 0.24706495 0.30380327 -0.19425794
000320 5a d6 66 3e fa 69 06 3e d0 b9 53 bd 22 46 05 3e
       0.22542706 0.13126364 -0.051690876 0.13015035
000330 3b 4f 8e 3d 5d 01 cc bd 5a 4c 30 3e c4 d7 a6 bd
       0.06948706 -0.099611975 0.17216626 -0.08146623
000340 b6 93 a4 3c 22 8e c3 be f2 0c b2 bd cb 64 93 bd
       0.020089965 -0.38194376 -0.08693875 -0.07196959
000350 5a 26 a7 3d 5e 4c 41 3e 04 9a 75 be 71 e8 be 3d
       0.08161612 0.18876788 -0.23984534 0.093216784
000360 b3 3d bf bd a1 3f 1f 3e e0 4a 98 bc e9 ed b4 3e
       -0.0933794 0.15551616 -0.01859039 0.3533776
000370 7c d6 e3 3d ba 03 b7 3c 21 cc 4a 3e be 0c 4f 3d
       0.11124894 0.022340644 0.19804431 0.05054926
000380 e0 57 93 3d 3f 73 f2 3d 9a df 0a 3e dc 0b 32 3d
       0.07194495 0.11838388 0.1356186 0.04346834
000390 00 a6 99 bc e7 39 47 be eb 2c 84 be 45 0d 82 3b
       -0.018755913 -0.19455682 -0.2581552 0.003968867
0003a0 f8 76 02 3e 3f 72 0c 3d 99 98 22 3d 33 e2 04 3e
       0.12740695 0.03428864 0.03969631 0.12976913
0003b0 39 65 b8 bd 4f 73 96 3e 76 b3 2f 3e ef e1 2e be
       -0.09003682 0.29384848 0.17158303 -0.17078374
0003c0 e9 0a d3 3d e2 b2 06 3e c6 9c ba bd 1a ef ff 3d
       0.10304815 0.13154176 -0.091119334 0.12496777
0003d0 36 43 d0 bc 38 88 3d bd 77 9d d1 3d e9 b8 c2 3d
       -0.025422674 -0.046272486 0.10235112 0.09507925
0003e0 29 e7 4f bb 72 73 a8 bd 48 b0 00 3e 93 8a 27 3e
       -0.0031723476 -0.082251444 0.12567246 0.16361456
0003f0 b0 e8 3c 3e 06 22 70 be f0 39 83 3c f7 a4 1a be
       0.18448138 -0.23450479 0.016018838 -0.15101992

output_cls_layers.bias f4 [80]
000000 ae 65 11 3f 6a b2 97 bb 99 ac 51 3e 69 27 b0 bd
       0.56795776 -0.004629423 0.20475997 -0.08601267
000010 dd 7f c1 bc 9b b6 fc bd 1c e1 1d bc 00 c4 3d 3d
       -0.02362054 -0.12339517 -0.00963619 0.0463295
000020 28 07 03 bc 93 f7 97 bc 8c 0e 00 be 27 c0 d3 bd
       -0.007997312 -0.01855067 -0.12505549 -0.103393845
000030 37 f7 0e be 05 c2 ff 3d 8c 72 09 3e 9c 09 d5 bb
       -0.13961492 0.12488178 0.13422602 -0.0065013897
000040 6a 00 e0 3c 3e ae 37 bd 6a 89 a2 bb 82 1b 37 bd
       0.027343947 -0.044843905 -0.0049602287 -0.044703968
000050 d3 3e 72 bd e8 40 01 be 9e 2c cc bd 70 8e 03 bd
       -0.059141945 -0.12622416 -0.099694476 -0.03211826
000060 3a ac 9d bb a8 f6 1c 3e 86 bf bf 3d 6e 74 9e 38
       -0.004811791 0.15328467 0.09362702 7.555714e-05
000070 45 b1 35 3d bb f4 97 bc f2 36 8e bd 25 0b 93 bd
       0.04435851 -0.018549314 -0.06944074 -0.0717986
000080 ed 21 ee 3b 2b 2e 3e bd 58 90 58 bc c4 b2 97 bd
       0.007267228 -0.046430748 -0.013218008 -0.07407144
000090 73 65 17 3c 11 c0 a5 3b b6 54 7d bd 71 43 f5 3d
       0.009240496 0.0050582965 -0.061848365 0.11975754
0000a0 6b 0f 0a bd f9 aa 8c 3d 26 a8 4b bd c0 34 a2 ba
       -0.03370611 0.06868548 -0.049720906 -0.001237534
0000b0 d2 20 a7 3a 8f c3 e0 3d 45 27 12 3d 20 c1 a9 bc
       0.001275087 0.109748 0.03568198 -0.020721972
0000c0 8d 1d a9 bd 01 cf 5f bd 7c 8c a8 bd 45 a4 c0 bc
       -0.082575895 -0.054640774 -0.0822992 -0.02351583
0000d0 fb 7e 01 be cd a9 a9 bc 04 c5 17 bd f6 98 d5 3c
       -0.12646095 -0.02071085 -0.037053123 0.026073914
0000e0 92 d0 96 3e 2a 25 7b bc 5c ee fe 3d ed 79 b5 3b
       0.29456002 -0.015328685 0.12447807 0.0055382163
0000f0 20 cf 56 3e fd e5 20 bd a4 75 99 bd a6 de 9b bd
       0.2097745 -0.039281834 -0.07493141 -0.07610826
000100 1e bc 0e be ca f1 7d bd 09 d5 d0 bd bc e8 82 bc
       -0.13938949 -0.061998166 -0.10196883 -0.015980117
000110 0e 01 84 bd 53 fd 2e 3d 13 1b ff bd fd e4 05 ba
       -0.06445514 0.042722058 -0.12456336 -0.0005107669
000120 a3 96 95 bc 81 e9 e9 3d 5c eb 0d 3d 57 e9 03 bd
       -0.018260306 0.114214905 0.034648284 -0.032204952
000130 a4 e1 91 3c 4c dd 24 38 60 1f 63 bd d5 f9 23 bd
       0.01780779 3.9306746e-05 -0.055449843 -0.04003318

835 f4 [24, 3, 3, 3]
000000 25 e1 7b bd bc e6 50 bd 4e 41 07 bd b0 04 34 bd
       -0.06149401 -0.051001295 -0.033021264 -0.043949783
000010 6a ac 4b bd 98 f7 a7 bc f9 f2 36 bd 63 46 8b bd
       -0.049724974 -0.020503804 -0.04466531 -0.068005346
000020 03 6a 20 bd b4 6b 8e bd 2a ca 29 bd 9d 63 81 bd
       -0.0391636 -0.069541365 -0.041452564 -0.06317828
000030 aa 7f b9 bd 0c bc ed bd e0 79 a4 bd 6a 0a d8 bd
       -0.09057553 -0.11608133 -0.08031058 -0.10548861
000040 13 b4 bd bd 8f 8d aa bd 08 43 f3 3d b0 5e d9 3d
       -0.09262862 -0.083277814 0.118780196 0.10613763
000050 a4 12 b7 3d 5b dc 05 3e e6 93 25 3e a2 cb be 3d
       0.08939102 0.1307234 0.161697 0.093161836
000060 e3 a2 10 3e ef 66 1c 3e cc fc e1 3d 8d ad 89 3e
       0.14124636 0.15273641 0.11034545 0.2689022
000070 63 9d 3a be c7 45 02 be 0f c0 07 be 84 56 f9 be
       -0.18224101 -0.1272193 -0.13256858 -0.4869882
000080 75 38 28 3e 5e 3d 81 bd 41 ca f9 3d ea a9 90 3e
       0.16427787 -0.06310533 0.1219678 0.28254634
000090 e0 d4 0f 3f 0c ca 41 be 99 d1 69 be 95 56 34 be
       0.56184196 -0.18924731 -0.22833861 -0.17611153
0000a0 25 86 5a bf c8 07 57 bd ac 08 51 be 80 80 35 3c
       -0.8536094 -0.052497655 -0.20413464 0.011078
0000b0 19 6b 25 3f fc 6d 0d 3f 61 d1 04 3e a4 7f b0 bd
       0.64616543 0.5524595 0.12970497 -0.086180955
0000c0 cc dc 6e 3d 1d 2d 18 bf c8 2b 97 be db d5 47 be
       0.058316037 -0.5944384 -0.2952559 -0.19515173
0000d0 df c1 50 be 70 3e dd 3e 57 3c 4a 3e 20 5a 40 3e
       -0.20386456 0.432117 0.1974958 0.1878438
0000e0 1e d2 ca 3d 56 16 c7 3d 5b 92 98 3d 1f 67 05 3e
       0.09903358 0.09721057 0.0744979 0.13027619
0000f0 8a d5 09 3e 6d 01 06 3e 05 63 db 3d 85 19 82 be
       0.13460365 0.13086481 0.10712246 -0.25410095
000100 1e cf a2 be 5c ac 69 be d3 78 a7 be 22 59 d7 be
       -0.31798643 -0.22819656 -0.3270937 -0.4206019
000110 a9 93 39 be 42 27 52 be c8 d8 86 be 3c a6 dd bd
       -0.18122734 -0.20522788 -0.26337266 -0.10822722
000120 b0 00 22 3d 96 c2 26 3e 8e 44 d3 3d 4c a5 4f 3e
       0.039551437 0.16285166 0.1031581 0.202779
000130 d6 62 a9 3e b9 3c 5c 3d 05 cc 8c 3d 12 e0 c6 3d
       0.33083218 0.053768847 0.06874851 0.09710707
000140 43 18 e2 3b 02 ae 43 be bf bd 6e be 46 8a bb bd
       0.006899865 -0.19109347 -0.2331457 -0.09157233
000150 08 85 61 be 18 35 af be 26 68 2a be 03 be f2 bd
       -0.22023404 -0.34220195 -0.16641292 -0.11852648
000160 f2 35 1f be 9c 0e 6f bd 78 ac 76 3e 78 8a 91 3e
       -0.15547922 -0.058363542 0.24089229 0.28425956
000170 01 fc 1f 3e bf 67 86 3e 4b f5 98 3e 22 33 50 3e
       0.15623476 0.26251027 0.29874644 0.20332006
000180 7c 92 47 3e 9b 02 53 3e de f3 26 3e 68 fb 6e bd
       0.19489473 0.20606463 0.16303965 -0.05834523
000190 bd 4c 53 bd 57 92 a9 bd 3b 97 87 bd 3b 18 01 3c
       -0.051586855 -0.08279865 -0.06620642 0.007879312
0001a0 75 a7 27 bd 97 55 9d bd 08 b8 9b bd b4 35 b8 bd
       -0.040931184 -0.076823406 -0.076034606 -0.08994618
0001b0 e5 6c a5 3e 6e 84 ac be 84 f1 db bd 7b 4c da 3e
       0.32309642 -0.33694786 -0.10739425 0.42636475
0001c0 01 09 23 be 34 7b 61 be d9 88 9b 3e 05 55 bf bd
       -0.15921403 -0.22019655 0.30377844 -0.09342388
0001d0 05 41 0e be 42 d7 2d 3f dc 24 0d bf aa 24 bc be
       -0.1389199 0.6790658 -0.5513437 -0.36746722
0001e0 55 83 44 3f 6c 82 18 be 23 c0 0a bf bc c3 fe 3e
       0.76762897 -0.14893502 -0.5419943 0.49758708
0001f0 55 31 b0 3c 1e 04 d9 be a1 0a 0b 3f 07 78 ac be
       0.021507898 -0.42385954 0.54313093 -0.33685324
000200 7a 11 b9 be da c1 1d 3f 9b 11 12 be d9 95 06 bf
       -0.36146146 0.6162392 -0.14264528 -0.525724
000210 c0 12 0e 3f 24 7a f5 3c f3 26 d5 be 53 8c 96 3c
       0.5549736 0.029965468 -0.41631278 0.018377459
000220 5a 0d 9c 3d 3e 9d 5b bc 1f fb 56 3d 3c 17 06 3e
       0.07619734 -0.013404189 0.05248558 0.130948
000230 4d 03 53 3d 65 33 26 3d 22 16 c4 3d a4 fb 59 3d
       0.05151682 0.040576357 0.09574534 0.0532185
000240 06 43 3c 3d 52 d1 e2 3d 23 07 36 3d 27 fd 5d 3d
       0.045962356 0.11075081 0.0444404 0.054196503
000250 f6 f6 cf 3d c6 de 7c 3d cf f4 59 3c 2b 16 45 3d
       0.10154526 0.06173589 0.013302996 0.048116844
000260 bd 3c 4f 3c 68 48 89 3d 59 43 dd 3d 5f 49 5e 3d
       0.0126487585 0.067032635 0.10803861 0.05426919
000270 35 be 62 3d 10 ef 00 3e c8 74 5e 3d 3b b6 45 bb
       0.055357177 0.12591195 0.05431059 -0.0030168432
000280 db 2b 35 3d 0c cb 49 3d a2 c6 82 be ca a4 f1 3c
       0.044231277 0.049265906 -0.2554217 0.029497523
000290 5f 5e cd 3e 84 e4 d4 be 5b 90 c8 bd 7c 7e 10 3f
       0.40111062 -0.41580594 -0.097931586 0.56443
0002a0 61 1c 88 be 6e bc a4 be b5 82 c9 3e 37 17 fe be
       -0.2658415 -0.3217501 0.39357534 -0.49627087
0002b0 bd ab 15 3d 62 99 22 3f 91 da 2f bf 45 b3 37 be
       0.036540736 0.63515294 -0.6869288 -0.1793948
0002c0 97 bc 53 3f 61 a1 b9 be 1f 00 0f bf 8c 51 22 3f
       0.8270964 -0.36255935 -0.5585956 0.6340568
0002d0 51 fa 68 be 13 27 d9 3c 42 bb be 3e d1 c8 b2 be
       -0.22751738 0.02650789 0.3725224 -0.34918836
0002e0 06 e2 27 be 37 72 ff 3e 1f 7c 44 be cc 88 d3 be
       -0.16394815 0.49891827 -0.19187973 -0.41315305
0002f0 08 02 d7 3e 29 35 87 3e b9 f8 8b be 00 6e bc 3e
       0.41993737 0.26407745 -0.27338198 0.36802673
000300 5d 84 1d be 3d 37 a9 3e 0e 06 1d 3e 99 61 6a be
       -0.15382524 0.33049956 0.15334341 -0.22888793
000310 e3 e5 9c 3e ee 89 83 3d f4 8b 09 be dc bf 64 bd
       0.3064414 0.064227924 -0.13432294 -0.055847034
000320 89 1e 34 3e e5 69 2a 3e 59 65 48 39 d3 62 ea bd
       0.17589773 0.16641958 0.00019111241 -0.114446305
000330 9f 0c 65 3e 2e 1b e4 3c 91 94 77 3d 0c 3a 12 3e
       0.22368096 0.027844992 0.06044442 0.14279956
000340 a5 32 d4 3e b4 2f d3 be 65 e6 d6 3d a3 21 66 be
       0.4144489 -0.41247332 0.10493163 -0.22473769
000350 a6 b6 71 3e 49 61 89 3e df a1 43 be dd 06 5f 3e
       0.23604831 0.26832035 -0.19104718 0.21779962
000360 26 89 8a bd 28 12 a5 be 14 4c 1a be 03 e2 ae 3d
       -0.0676444 -0.32240415 -0.15068084 0.08539202
000370 fe bf b4 bc 0b 5e 94 be 34 c5 06 3e 1b ca b6 3e
       -0.022064205 -0.28978 0.13161165 0.3570107
000380 c3 6c 74 3e 0b 5d 3c be 0f 02 22 bf e0 f1 ba be
       0.23869614 -0.18394868 -0.6328439 -0.3651266
000390 bc cd 3d 3e f4 e7 fd bd 7d d9 e5 be 06 34 c0 3e
       0.18535513 -0.12397757 -0.44892493 0.3753969
0003a0 19 63 3a 3f cd 48 ce 3e 33 22 af be df a7 49 bf
       0.7280746 0.40289918 -0.3420578 -0.78771776
0003b0 9e f7 14 bf ce 7a 9d 3e c5 0a 11 be 85 ae 06 bf
       -0.58190334 0.30757755 -0.14164265 -0.52610046
0003c0 70 ca 25 3f d7 d5 66 3f e7 c6 0b 3f c6 10 0c bf
       0.6476202 0.90170044 0.54600376 -0.54713094
0003d0 84 42 68 3c 36 5f 66 3e 41 f1 bd 3d e0 bf 02 3f
       0.014176015 0.22497258 0.09274531 0.5107403
0003e0 75 78 a8 3d ff 1a 2e 3e 39 65 19 3e be fa ce be
       0.082261 0.17002486 0.1498002 -0.40425676
0003f0 6b 3b 48 bf 35 dc e2 3d 77 a4 84 3e 8d 7e 75 3c
       -0.78215665 0.110771574 0.25906727 0.014983785

836 f4 [24]
000000 01 19 cf 3e 14 a4 52 3f 60 cb 12 3f 35 32 d7 3e
       0.40448764 0.82281613 0.57341576 0.42030492
000010 32 90 dc 3d c0 5d 4a 3d 9e dc 0f 3e 2a 6a c7 bf
       0.107696906 0.049405813 0.14049003 -1.5579274
000020 d1 d5 cc 3d f0 7c f5 3c af 7c bf 3d f2 cb 97 b9
       0.1000172 0.029966801 0.093499534 -0.00028952915
000030 a7 52 c2 3e d7 9f 6c 3f 97 de a2 3d 89 2a 24 ba
       0.37953684 0.92431396 0.07952612 -0.0006262442
000040 e2 b8 42 3f 0c fe 49 3e 9c 84 92 3d 68 c4 90 3c
       0.7606336 0.19725817 0.071541995 0.017671779
000050 f4 9d d3 3d 86 be d0 3f b8 0b ce 3c e9 b8 2b 3e
       0.103328615 1.6308143 0.025152072 0.16769756

838 f4 [24, 1, 3, 3]
000000 b3 fe 4a bc 9a 51 cc bc d8 6c 8a 3d 6f 5d be bf
       -0.012389827 -0.024941254 0.067590415 -1.4872264
000010 63 69 f1 be 9b 2e c5 3f f1 51 cc bf f3 14 05 bf
       -0.47150716 1.5404848 -1.5962507 -0.5198509
000020 f7 68 c7 3f a7 7d 0f 3d 71 b6 21 bc 9e 1f 37 3d
       1.5578908 0.03503194 -0.009870158 0.044707887
000030 e3 04 38 3e 41 8c 1a bd d0 58 e2 bc 9e e9 5f 3e
       0.17970614 -0.037731413 -0.02763024 0.21866462
000040 d7 e4 0d 3e 87 11 d5 bd a7 63 11 bc 2c da 13 3d
       0.13856827 -0.10403734 -0.008873857 0.036096737
000050 7f e1 8a be e2 ea c0 bd 76 14 b7 3c 14 4e 99 3e
       -0.27125165 -0.094198 0.022348624 0.2994238
000060 8b e6 0d bf 87 02 26 3e 99 5f 04 40 4a ad 21 3c
       -0.55429906 0.16211902 2.0683348 0.0098679755
000070 cb 98 9f 3b 61 42 b2 bd 7c 33 25 3f 8e 0d 08 3e
       0.0048705093 -0.08704067 0.64531684 0.1328642
000080 e4 0a a0 be c5 38 92 3f de a9 c3 3e 72 c5 d1 be
       -0.3125831 1.1423575 0.38215536 -0.4097095
000090 ce f8 c7 3b bc d4 1f 3d f5 ea 8d bc e4 a1 8a 3d
       0.006102658 0.03902124 -0.01732395 0.067691594
0000a0 c5 8a 0b 3d 8a 61 9a bd 13 30 ef 3c 28 10 58 bd
       0.034067888 -0.07538135 0.029197728 -0.052749783
0000b0 6a 25 96 be ea cd 22 bd 06 98 18 bc 3b 78 ab 3d
       -0.2932542 -0.039747156 -0.009313589 0.083725415
0000c0 16 a5 46 bf 68 9a 69 3c 91 17 35 3f fb 9e 4a bf
       -0.7759565 0.014258005 0.70739084 -0.79148835
0000d0 93 07 c1 bc c2 97 39 3f b0 2e 86 bc a8 29 f5 3c
       -0.023563182 0.7249719 -0.016379684 0.02992709
0000e0 3a 2c 24 bd 80 be b1 3c cc b6 b4 3c 06 06 c7 bd
       -0.04008124 0.021697283 0.02205982 -0.09717946
0000f0 33 f2 8f bc 9a 32 90 bd fd f3 6b be d7 41 4d 3c
       -0.017571544 -0.070409015 -0.23042293 0.0125279045
000100 27 a9 64 3e 09 a3 96 3e c7 ba dc be 11 6a d7 3e
       0.22330151 0.2942126 -0.4311125 0.4207311
000110 b8 4d 6e 3f 23 24 52 be 8b aa 12 3f 2e 8c a4 3f
       0.9308734 -0.20521598 0.5729148 1.285528
000120 fa 52 3e bb b1 99 70 bd 1d 52 f6 3c 4d 99 7f bd
       -0.0029041157 -0.05874032 0.030068452 -0.06240206
000130 c0 88 30 bd c8 a1 d2 3d 41 84 c3 bc 87 0e be 3c
       -0.043099165 0.102847636 -0.023866775 0.023200287
000140 1a 94 98 3e 5f a5 bb bc 33 67 4c be 72 e4 04 3c
       0.29800493 -0.022906004 -0.19961242 0.008111106
000150 ca 3a ae 3b 3f cb 43 bd 31 36 a5 bd 56 48 b7 3c
       0.005317067 -0.047801252 -0.08066977 0.02237336
000160 3c 88 8e 3d 5f 91 0b be 79 aa 10 3d a0 e0 c3 bd
       0.069595784 -0.13629673 0.035318825 -0.09564328
000170 75 5e 86 3d 3d ea 6b 3c 69 cf 54 be aa 14 bc be
       0.06560985 0.0143991085 -0.20782246 -0.36734515
000180 92 a0 a4 3e 20 64 55 bf af 6a db bf c4 75 b6 a8
       0.32153755 -0.83355904 -1.7141932 -2.0257132e-14
000190 aa d1 f1 a8 2f a2 0a a9 ac fc 83 a8 70 74 57 a8
       -2.6847302e-14 -3.0782827e-14 -1.46535e-14 -1.1960146e-14
0001a0 8b 1e b4 28 cb 18 ba a8 63 88 e6 28 9a df 00 29
       1.999726e-14 -2.06609e-14 2.5594278e-14 2.8615653e-14
0001b0 a0 04 a3 3d 10 94 08 3d fa 32 25 3e 68 00 5b bd
       0.079598665 0.03334433 0.16132727 -0.053467184
0001c0 47 2e ab be 96 12 e6 be 95 27 04 bc 69 83 6a be
       -0.33433744 -0.44936055 -0.008066078 -0.22901691
0001d0 bb 2e bb be 48 84 28 bd 18 d1 15 bd 77 50 a4 bc
       -0.3655909 -0.04114178 -0.03657636 -0.0200579
0001e0 b5 bb a4 bc 1c 89 a9 bd 10 68 48 be ba d0 86 3c
       -0.020109037 -0.08278105 -0.19570947 0.01645695
0001f0 b6 a5 be bd fd 57 20 be 79 ba 94 bc 7b be 81 3d
       -0.093089506 -0.15658565 -0.018155323 0.063351594
000200 66 66 0a bc 65 63 14 3d a4 b0 0b 3d 9d 31 13 be
       -0.008447265 0.036227603 0.034104005 -0.14374395
000210 de 35 cc bc cb 5d e7 bc eb 42 8f be ee a1 1a 29
       -0.02492803 -0.028242966 -0.27980742 3.433532e-14
000220 f7 f7 f9 26 71 fa c2 a8 2f 64 79 a8 fe 8b 0b a9
       1.7345057e-15 -2.1646938e-14 -1.38440005e-14 -3.0985624e-14
000230 46 a7 a6 26 21 0e 36 a9 ef 0e e9 28 27 c8 e4 a7
       1.1563903e-15 -4.0424373e-14 2.5874673e-14 -6.349972e-15
000240 f6 55 59 bc 03 95 8f bd ff fd b4 3d b5 2d f4 3e
       -0.013265124 -0.070108436 0.088375084 0.47691122
000250 5b 3e 00 be f4 f7 47 bf 9a ee 28 3f 01 50 41 be
       -0.12523787 -0.7811272 0.6598908 -0.18878175
000260 a3 a1 b2 bf a2 b4 3f be c1 ae 31 3d bf 5d 10 3e
       -1.3955578 -0.1872125 0.04337955 0.14098261
000270 b1 6f 8e bf 86 2c 9a 3e e4 58 f3 3f 95 a5 0e bf
       -1.1127836 0.30112094 1.9011502 -0.5572141
000280 f3 d2 fc 3d 04 4b ab 3f 87 f1 3d bd 15 1b 15 bd
       0.12344923 1.3382268 -0.046372917 -0.03640278
000290 b7 2c ea bd ed 42 51 bd cb ac 73 be 86 ff 89 be
       -0.1143431 -0.051089216 -0.23796384 -0.2695276
0002a0 92 28 9e bd ef 78 34 be 5e b4 80 be 95 62 de 3c
       -0.07722582 -0.17624258 -0.2513761 0.027146617
0002b0 cb 3c fb 3d 92 1b b0 3c 49 71 fc 3d ee 3e f0 3d
       0.12267455 0.021497522 0.12326295 0.11730753
0002c0 c3 77 3b be 26 5e 20 3d 7e 8d 15 bd 77 91 c9 be
       -0.18307404 0.039152287 -0.03651189 -0.39368793
0002d0 02 bf 08 3d b5 fc 6d bc ad af 87 bc ab fb e7 3d
       0.033385284 -0.014525582 -0.01656326 0.11327299
0002e0 45 b0 d7 3c e8 bb d7 3c 16 63 a1 3d ef 41 8a 3d
       0.026329169 0.026334718 0.07880227 0.06750857
0002f0 aa 26 03 3d 72 0a 64 3d aa 7a dd ba bd c1 89 bd
       0.032019295 0.055674024 -0.0016897519 -0.06726406
000300 42 05 43 3f 94 65 b4 bd c4 87 2b bf 8b 37 11 3f
       0.761799 -0.08808437 -0.67004037 0.56725377
000310 03 bf d6 bd 81 26 1d bf 17 bc a9 bc 74 4f 9d 3d
       -0.10485651 -0.6138688 -0.020719571 0.0768117
000320 c1 be b4 3c 17 a4 ae 3d 17 b0 e3 3c 1e 8f ff bd
       0.022063615 0.085273914 0.027793927 -0.12478469
000330 04 a4 03 3d 8a e2 cf bd 17 d5 c6 be bf 34 a1 3c
       0.03213884 -0.10150631 -0.3883445 0.019678472
000340 62 85 e3 3c 08 2b 5d 3d d6 e5 19 3c 70 3b bd 3d
       0.027773563 0.053996116 0.009393176 0.092398524
000350 75 6e e0 3d 11 30 92 3a f5 3c ea 3d c8 72 ec 3d
       0.10958568 0.0011153241 0.11437408 0.1154533

839 f4 [24]
000000 02 af ca 3e cb a3 89 be f4 80 6d bf 62 f4 2d bf
       0.39586645 -0.26882777 -0.9277489 -0.67951024
000010 81 11 b5 3d 70 e9 78 3d 33 1b 11 3e e5 09 63 bd
       0.08841229 0.0607695 0.14170532 -0.055429358
000020 a9 a6 c0 bd 90 7b 3a 3e 1d b7 c1 3e 03 d7 e6 32
       -0.09406788 0.18211198 0.37835017 2.68733e-08
000030 a7 75 05 3e 14 38 de 3e 9e d6 f7 3d 38 26 e3 32
       0.13033162 0.4340216 0.12101482 2.6443658e-08
000040 16 ca 84 3f ea 38 0b bd 72 a4 6f 3e d9 18 90 3d
       1.0374172 -0.033989824 0.23402575 0.07035989
000050 16 bd f0 bd ae b6 50 3e 8b c6 1c 3e 96 25 65 be
       -0.11754815 0.20382187 0.15310113 -0.22377619

841 f4 [24, 24, 1, 1]
000000 03 8a 0d bb fc 48 8b 3d 83 4c 31 3c 0f 19 08 3c
       -0.0021597154 0.0680103 0.0108214645 0.008306756
000010 3c 41 1d 3b 2c bf c6 39 37 cf 06 3d 31 f2 40 bc
       0.0023995182 0.00037907937 0.03291246 -0.011776493
000020 f8 06 9c 3b a1 29 4d 3d 2b d9 ba 3c 2b 39 52 aa
       0.004761573 0.05008853 0.022808632 -1.8671581e-13
000030 c9 8c 69 be 82 96 08 be fb b4 9a 3c ac 4c 51 aa
       -0.22807612 -0.13338664 0.018885126 -1.858953e-13
000040 2d 6c 62 bc 18 ad 40 3e 6b 6e 40 bd f3 36 3d 3c
       -0.013819736 0.1881603 -0.046980303 0.011548745
000050 80 6c 86 3c 19 33 82 bd 46 b7 9d bc a6 1c 2d bd
       0.016409159 -0.06357402 -0.01925243 -0.04226365
000060 d2 ae 38 bd 4e 23 ca 3d 01 9b 29 be a4 e4 06 3c
       -0.045088597 0.09870015 -0.16563036 0.008233223
000070 65 84 41 bb 61 51 c3 bb 72 25 e2 bb a4 8c 00 3d
       -0.0029528376 -0.005960629 -0.0069014365 0.031384125
000080 40 64 b6 bc eb fc a2 3c 52 c6 a1 3f bd 44 9c 2b
       -0.0222646 0.019895991 1.2638648 1.1103545e-12
000090 91 e5 41 be 4e 45 1d be 93 bb a3 3c 9d 3a 01 2b
       -0.18935229 -0.15358469 0.019986903 4.591135e-13
0000a0 08 fb 71 be 75 c0 a2 bc b4 14 8d 3b 02 2d be 3c
       -0.23630917 -0.019867161 0.0043054465 0.02321482
0000b0 3b 9a 1f 3d 99 d8 8b bd 49 de 40 bc 7d 06 48 bd
       0.038965445 -0.06828422 -0.011771747 -0.048834313
0000c0 fc 0b cf 3d 8a b9 fd 3b 34 94 05 3f c7 55 50 3d
       0.10109708 0.0077430652 0.52179265 0.050863054
0000d0 61 cd 46 3d b8 04 3a bd d2 5e 1e 3d bb 30 ef 3c
       0.04853571 -0.045414656 0.038664646 0.029198041
0000e0 31 14 62 3c dd b0 ab 3c 80 23 ae be 24 4f dc aa
       0.013798759 0.020958358 -0.3401146 -3.9134765e-13
0000f0 53 86 d5 3c 28 88 73 bd 9d 08 93 3d 79 91 42 aa
       0.026065027 -0.05945602 0.07179377 -1.7281132e-13
000100 20 f6 05 bf f6 2a a4 bc 70 a4 8a bd f6 32 ad bb
       -0.5232868 -0.020040017 -0.06769645 -0.005285616
000110 c2 d5 f9 bc 2f a4 e6 3c 49 89 2a 3d f7 1d 99 bd
       -0.030497435 0.02815446 0.04163483 -0.074764185
000120 9e e8 ed bd 86 03 69 be ff b6 20 bd 8f 66 2f 3d
       -0.11616634 -0.2275525 -0.03923702 0.042822417
000130 fd 0e a2 3d 78 67 c8 3c af e8 9d 3e 42 7a 53 3d
       0.07913015 0.0244634 0.30841586 0.051630266
000140 bc 2a b6 3d 05 b6 80 3d 32 8b de 3c f5 03 05 ab
       0.0889487 0.062847175 0.027165983 -4.7256583e-13
000150 71 39 8d 3e 0f 13 e2 3e ad c6 54 be 32 18 00 2b
       0.27582887 0.44155166 -0.20778914 4.5508313e-13
000160 9d 12 02 bb 5b 1b c6 3d 68 d6 47 bf e9 52 7a bc
       -0.001984752 0.096731864 -0.7806153 -0.015278556
000170 2d 01 e4 bc 7f c8 bc bd 25 fb ef 3d 2f 83 1c bf
       -0.027832592 -0.09217929 0.11717824 -0.6113767
000180 94 42 ab 3d fd 31 6a bd b3 6f 57 3d b9 08 5f 3f
       0.08362308 -0.05717658 0.05259676 0.87122685
000190 95 ad e1 bc a8 45 d7 bb 5f f9 31 3c 3c e2 9b 3c
       -0.02754859 -0.006569583 0.010862677 0.019028775
0001a0 7a 90 a3 bb 20 da 6c bc ba 41 f5 3d 06 07 37 2a
       -0.004991588 -0.014456302 0.11975427 1.6256102e-13
0001b0 fc f1 67 3d 02 56 be 3c 66 0f 3c bb ba f5 c4 a9
       0.05662726 0.023234371 -0.0028695702 -8.746775e-14
0001c0 58 d8 38 3c 91 30 43 3c cd 1e a9 bc c0 f5 5a bc
       0.011282049 0.011913435 -0.02064457 -0.013364255
0001d0 08 ab 7b 3c 0a 50 10 bd 49 24 6a bc 57 b6 be bc
       0.015360601 -0.03523258 -0.014290878 -0.023280306
0001e0 7e 00 38 3e 5d 05 80 3d e7 91 b7 bc fc 3a 07 3d
       0.17968938 0.06251023 -0.022408439 0.033015236
0001f0 12 37 0a 3d 48 3a 8f 3e bb a4 9c bd b0 dc 3e 3e
       0.033743925 0.27974153 -0.07648607 0.18638873
000200 8c 6e 30 bd b0 82 36 bd a0 f4 15 bd fd cd 2d ab
       -0.043074176 -0.044558227 -0.036610246 -6.1747813e-13
000210 c4 0d 94 bd 92 a5 35 be b8 2c 99 3c 5e 2e c6 aa
       -0.07229188 -0.17738941 0.018698081 -3.520404e-13
000220 4e d0 6f 3d 95 c7 35 bd 6e 28 e1 3e b2 29 4b 3d
       0.058548264 -0.04437979 0.43976158 0.04960031
000230 10 f9 c4 bd 78 15 13 3f 7f 43 2a 3d d5 12 ba 3e
       -0.096178174 0.57454634 0.041568276 0.36342493
000240 67 ef b8 bc d1 c1 ae 3b 99 b0 d0 3c c9 0e c5 3c
       -0.022575093 0.0053331633 0.025474833 0.024054902
000250 56 0a af 3b a2 4a 38 3f b5 ff 57 bd b0 90 55 3e
       0.0053418083 0.7198888 -0.052734096 0.20855975
000260 e2 82 d6 3c a6 c0 cd bd 67 c5 de bc eb 76 8e aa
       0.026185457 -0.100465104 -0.027193738 -2.5306783e-13
000270 8d 69 dc 3d 70 99 03 3d 6f f7 9e 3c a3 f3 75 2a
       0.1076232 0.03212875 0.019405095 2.18449e-13
000280 a7 60 41 bd 04 be 4c 3d da 70 f0 bc a2 6b 85 bd
       -0.047211315 0.0499859 -0.029350687 -0.0651467
000290 76 92 94 be 14 a3 3c 3c 3e ae 21 bd ab f5 20 bd
       -0.2901799 0.01151349 -0.03947281 -0.039296787
0002a0 d7 c4 17 bd da 97 93 3d 48 9b c8 bb 78 0e 9c bc
       -0.037052955 0.07206698 -0.0061220266 -0.019049868
0002b0 07 83 e3 bd 0e 0b 1b 3d d8 f8 bd 3d 89 d9 8f bd
       -0.11108976 0.03785234 0.09275979 -0.070239134
0002c0 d9 af d1 3d bc 12 13 3d 38 1b 6c bd f5 19 79 2a
       0.102386184 0.03590654 -0.057643145 2.2124648e-13
0002d0 af bf 2e be 10 87 1b be cf 20 8f 3c bf f6 fc 2a
       -0.17065309 -0.15188241 0.017471699 4.4935407e-13
0002e0 92 12 99 bd e1 da 37 3c 5c b2 bc be c7 7b fc 3c
       -0.07474245 0.011221618 -0.36854827 0.03082074
0002f0 a9 b4 c6 3d b9 32 a3 bd 34 67 7d bd 63 11 9f bd
       0.09702427 -0.07968659 -0.061866 -0.07766988
000300 6f f7 53 bd 69 3f e8 bc e9 f8 0e 3f fb a4 18 bd
       -0.051749643 -0.028350549 0.55848557 -0.037266713
000310 a9 5b b5 bc 5b 21 81 3b a0 d3 be 3b 56 68 7e bc
       -0.022138434 0.003940744 0.0058235675 -0.015527805
000320 e5 78 25 bb ea 4e 3a bd f5 83 a2 3d 75 c8 b3 a9
       -0.002524906 -0.045485415 0.07935325 -7.9839706e-14
000330 f7 91 98 bc 26 74 af bb 62 50 31 bc ed 93 8a aa
       -0.018624289 -0.005354422 -0.010822387 -2.4616369e-13
000340 bd 8f fa 3d 30 6e ef 3c 30 7a 81 3c c5 2f 9d bc
       0.12234447 0.029227346 0.015805334 -0.019187817
000350 73 6d 28 3b 18 ff 44 3c 7e 95 cf 3c 66 cb 5a bc
       0.0025700002 0.01202371 0.025339838 -0.013354158
000360 9d 44 71 3f dd eb ed 3d 2b d9 3c be 5a 0c 80 be
       0.9424532 0.11617253 -0.18442218 -0.25009423
000370 00 e3 00 3b 35 67 c3 3d 17 b4 5f be 5c 67 84 bd
       0.0019666553 0.095411696 -0.21846043 -0.06465027
000380 72 17 81 3d 42 7f a3 3d 16 a0 23 3f 78 df 59 2b
       0.063033 0.07983257 0.63916147 7.740401e-13
000390 46 a9 c3 bc 17 12 a1 bd 0c 3b 3f bd 9b 59 ad aa
       -0.023884427 -0.078647785 -0.04668717 -3.079315e-13
0003a0 ec d9 9c 3f 7f 35 a1 bd 46 49 56 3e ee 41 27 bd
       1.2254004 -0.07871532 0.20926389 -0.04083436
0003b0 2e 19 98 3c 76 46 45 bc 62 39 72 3d bd 2a 1b 3e
       0.018566694 -0.012040725 0.059136756 0.15153022
0003c0 74 d4 c9 3a 41 6b 6a 3e 4b 0f 37 3d 98 28 49 bb
       0.0015398399 0.22892477 0.04469232 -0.0030694362
0003d0 03 89 cb 3d 5c da fd bc 86 40 c0 3d 6a 29 1a be
       0.09938242 -0.03098791 0.09387307 -0.1505486
0003e0 97 fb 96 bd c3 b7 8a bd 73 06 59 3d 35 13 9e aa
       -0.07372206 -0.06773331 0.052984666 -2.8079766e-13
0003f0 05 44 06 be b7 72 78 bd 51 57 45 3c b6 46 3d aa
       -0.13111885 -0.060656276 0.012044744 -1.6811105e-13

842 f4 [24]
000000 4b fa 17 3e 7f ad e2 bd 58 31 e9 3d b4 23 c5 3e
       0.14841573 -0.11068248 0.11386365 0.38503802
000010 8a 88 06 3e 3a e9 48 3d 4e 0d 86 3c bd df 20 3e
       0.13138023 0.049050547 0.016363766 0.1571035
000020 9c 64 07 3d db 87 d6 bc 1e d2 87 bb 7f 1e 4d 3d
       0.033054933 -0.026187828 -0.004144921 0.05007791
000030 49 67 48 3e 28 c1 2a 3e 08 65 27 bd d3 d3 b5 3d
       0.1957065 0.16675246 -0.040867835 0.08878293
000040 9f 3f dd 3e d9 1a 77 3d 7b 2e c2 3d f9 de 8c 3d
       0.43212602 0.06032834 0.09481522 0.06878466
000050 8b 78 b0 3e 9a 95 d7 bd f7 11 4d 3d 04 49 ba 3d
       0.34466967 -0.10526581 0.05006596 0.09095958
